learned_weights.pth (torch, 2380 bytes, 3 tensors)

weight f4 [45, 1, 3]
1.0294205 -0.569554 -0.099415764 0.7104214 -0.52145505 -0.19477113 1.3402894 -0.031098755
0.49811634 1.0270125 -0.5708323 -1.1792789 1.1016097 -0.83601123 -0.5747401 0.8427039
-0.95380646 0.021244496 0.68603975 -0.39493713 -0.08560694 0.20859045 0.10477448 -1.1863966
1.0598743 0.16576761 -0.11530375 1.5137951 0.4006411 -0.9005278 -0.34301656 -0.1319525
-0.89132017 0.06629352 -0.47075406 -0.08463788 -0.29459542 0.104929015 -0.7714526 0.51026803
0.18467057 0.20193736 1.4009941 -0.41783154 0.021599296 1.5602344 -0.98676205 -1.2703841
0.9782238 -1.571831 0.07829501 -0.6370472 0.4339251 -0.45894676 0.36078382 -1.4712112
0.72931796 -0.07586071 0.3188763 -0.79023874 -0.042340294 -0.38806647 -0.017455526 -0.060312692
-1.2509841 0.2340409 0.6922609 -1.4247501 -0.3370119 0.3340186 -0.14717184 0.06201241
-0.013172679 -0.8894247 0.3515872 0.28029168 -0.22261511 0.4937752 0.09028742 0.14634451
-0.57811403 -0.1439281 -0.59834015 -0.4774179 0.18244316 -0.25015733 0.34454986 0.75537044
-0.9368904 -1.0208397 0.28583077 0.2549509 -0.5849123 0.056638785 -1.2781191 0.051101565
0.47950494 -0.5194952 0.33398554 0.57824486 -0.01890287 -0.15458137 0.8861703 -0.4946767
-0.6099042 0.802 -0.005038597 0.32288852 1.1265371 0.08593142 -0.20356409 0.724573
-1.2962205 -0.6604301 0.13491261 -0.41274393 -0.2183542 0.46913007 -0.29753333 0.42320046
-0.4528575 -0.6713337 -0.10646468 -0.23787738 -0.6638737 -0.18896167 0.6134209 0.100653194
-0.17684147 0.082668416 0.31566143 0.17549628 0.4743265 -0.41367784 0.11009975
00000000: 0dc4 833f 4ace 11bf 7e9a cbbd 2dde 353f
00000010: 147e 05bf 1572 47be 9a8e ab3f d1c2 febc
00000020: 1b09 ff3e 2575 833f 1122 12bf 9cf2 96bf
00000030: 8c01 8d3f d504 56bf 2b22 13bf 71bb 573f
00000040: a92c 74bf f008 ae3c 4da0 2f3f 3335 cabe
00000050: b152 afbd bc98 553e 0194 d63d d8db 97bf
00000060: f6a9 873f fcbe 293e 5f24 ecbd 0ac4 c13f
00000070: d520 cd3e fd88 66bf de9f afbe 8e1e 07be
00000080: 8f2d 64bf e6c4 873d ad06 f1be a056 adbd
00000090: 36d5 96be 06e5 d63d eb7d 45bf eda0 023f
000000a0: 481a 3d3e abc8 4e3e c653 b33f 04ee d5be
000000b0: 02f1 b03c c3b5 c73f 709c 7cbf f29b a2bf
000000c0: e06c 7a3f c231 c9bf 2259 a03d 8615 23bf
000000d0: 6e2b de3e 12fb eabe a8b8 b83e a650 bcbf
000000e0: 95b4 3a3f dc5c 9bbd c143 a33e 164d 4abf
000000f0: 046d 2dbd a6b0 c6be e4fe 8ebc 710a 77bd
00000100: 3f20 a0bf 6ba8 6f3e 0338 313f 365e b6bf
00000110: d38c acbe 7c04 ab3e 37b4 16be ba00 7e3d
00000120: 38d2 57bc 56b1 63bf 3d03 b43e 6482 8f3e
00000130: 37f5 63be 1ad0 fc3e 9ce8 b83d 56db 153e
00000140: 48ff 13bf e361 13be d22c 19bf 1e70 f4be
00000150: 61d2 3a3e 9f14 80be d768 b03e f55f 413f
00000160: 0dd8 6fbf e0aa 82bf 6958 923e ed88 823e
00000170: d0bc 15bf 12fe 673d 6899 a3bf e04f 513d
00000180: ac81 f53e a3fd 04bf 2700 ab3e db07 143f
00000190: 31da 9abc 944a 1ebe 0fdc 623f 4446 fdbe
000001a0: af22 1cbf df4f 4d3f d11a a5bb a551 a53e
000001b0: 5e32 903f d0fc af3d 1b73 50be 9e7d 393f
000001c0: 8eea a5bf f211 29bf 8826 0a3e 2c53 d3be
000001d0: 3e98 5fbe d131 f03e 4a56 98be bbad d83e
000001e0: f0dc e7be 86dc 2bbf 270a dabd 2196 73be
000001f0: a0f3 29bf 2b7f 41be 2709 1d3f 4323 ce3d
00000200: ee15 35be 0f4e a93d 609e a13e 4cb5 333e
00000210: ecda f23e 95cd d3be fa7b e13d

root f4 [1, 3]
-0.54226416 -0.68920135 -1.4517235
00000000: d3d1 0abf 806f 30bf 13d2 b9bf

bias f4 [3]
0.4647051 -0.4491178 -0.44039488
00000000: d4ed ed3e c5f2 e5be 707b e1be
