learned_weights.pth (torch, 2380 bytes, 3 tensors)

weight f4 [45, 1, 3]
000000 24 9a 91 3f 25 de 0d 3f ba 2c 35 bf 67 1e 3c 3d
       1.1375165 0.5541709 -0.7077137 0.04592743
000010 39 13 d1 be 6e 67 1e 3f b6 3e 13 3f b7 91 5e bf
       -0.40834978 0.6187657 0.57517564 -0.86941093
000020 0b 0d 08 3f 28 8b b8 3d 40 db 0d 3f b6 2b 31 bf
       0.531449 0.09010917 0.55412674 -0.6920732
000030 2f f5 7b 3f 22 d7 c2 3e d7 18 0f 3f 6e 87 f5 be
       0.98420995 0.38054758 0.5589728 -0.47954887
000040 99 4a 5a be 4a 9d 5c bf 48 1a 20 3e 17 53 d2 bd
       -0.21317519 -0.86177504 0.15635026 -0.102697544
000050 97 14 c0 be 8f 4f 1b 3f 9c d9 b9 bf 9b 71 f5 be
       -0.3751571 0.6066827 -1.4519534 -0.47938237
000060 d4 a1 7b 3f 9c 9f 04 bf 40 93 62 bf 96 77 7e 3f
       0.98293805 -0.51806045 -0.88505936 0.99401224
000070 c9 16 e9 be 42 b8 ae bf 7d a9 83 3d 5c ab 85 3e
       -0.45525196 -1.3649981 0.06428812 0.261073
000080 60 4d cb be cf 96 f4 3e ae 65 bb be f5 3a c9 be
       -0.3970747 0.47771308 -0.36601013 -0.39302793
000090 37 2d 2b 3e 04 39 1c bf b9 cd 77 3d 6e a4 5b 3f
       0.16716467 -0.610245 0.060498927 0.85797775
0000a0 bd 08 30 bf 3c d8 91 bf 0e 4b a7 3f f3 10 d5 be
       -0.68763334 -1.1394114 1.306978 -0.41614494
0000b0 5b cf 67 be da 60 b5 3f b8 f1 13 3f d2 e8 4b be
       -0.22637694 1.4170182 0.5779071 -0.19913033
0000c0 ae c2 18 bd 65 11 96 3e c4 c7 4e be 6f 0c 39 3f
       -0.037295036 0.29310146 -0.20193392 0.722846
0000d0 4f 8d d0 be 55 5c 87 be da 7d ad 3d 27 19 75 bf
       -0.4073281 -0.2643763 0.0847127 -0.95741504
0000e0 48 0e fa 3e 36 14 67 3f b7 42 bd be 5d f0 43 3f
       0.4883902 0.90265214 -0.36964962 0.7653864
0000f0 1a 0f 15 3d 21 31 5f be 31 3a 8b be 03 ba ab 3f
       0.036391355 -0.21796085 -0.27192834 1.3416141
000100 be aa aa bf 2d da 0f 3e b7 a9 80 3f 52 82 01 3f
       -1.3333356 0.14048071 1.0051793 0.5058948
000110 58 55 cb 3d fa 06 72 be ef ef be 3e 79 43 1c 3e
       0.099283874 -0.23635474 0.3729243 0.15260114
000120 12 80 01 bf 10 26 1c 3f bc 80 0c bf 47 22 69 3e
       -0.50586045 0.6099558 -0.54883933 0.22766982
000130 59 2f c1 bd b2 fd a8 3e 9b 87 ae 3d 74 f9 94 be
       -0.09432859 0.33006054 0.085219584 -0.29096568
000140 2c 0a 84 bd e1 40 36 3f f1 23 46 bf 96 ca 3a 3e
       -0.06447253 0.7119275 -0.7739859 0.18241343
000150 6d 07 5f be 9a 42 95 bc ef 87 30 3e c1 3a a7 3f
       -0.21780176 -0.018220235 0.17239355 1.3064805
000160 22 c7 62 be 53 85 82 3e cd 01 54 3f 4c d2 4b bf
       -0.22146276 0.25492343 0.8281525 -0.7961776
000170 f8 43 19 3f 52 a3 7b be 68 47 94 3e 09 68 4f be
       0.5986934 -0.2457402 0.2896073 -0.2025453
000180 a6 eb 9c 3e 74 8e e0 3c b1 c3 a7 bf fa 0b 49 3f
       0.30648535 0.027411677 -1.3106595 0.785339
000190 64 d2 5f be 59 14 c4 be d0 24 65 3c 07 34 d2 be
       -0.21857601 -0.38296774 0.013985828 -0.4105532
0001a0 ba cc b3 3e e9 12 4e bd ea 6f 8b be 21 90 17 3f
       0.3511713 -0.050311003 -0.2723382 0.592043
0001b0 87 49 89 3f b2 84 c7 bd d7 51 6c bf ce ee 1e bf
       1.0725564 -0.097421065 -0.9231238 -0.6208314
0001c0 1c 23 95 bf ca 3d 8d bf 3b c5 2f bf e0 b6 22 3e
       -1.165134 -1.1034482 -0.68660325 0.15890074
0001d0 34 44 bd 3e 1b f3 a1 3e ea bd fa 3d 63 25 a2 bc
       0.36966097 0.31630787 0.122432545 -0.019793218
0001e0 f8 70 3b 3e 1e 02 21 3f 8b d8 a5 be 35 de 0d 3f
       0.18304813 0.62893856 -0.32391772 0.55417186
0001f0 9c 09 7f be 67 bb ba be 62 20 74 3e d5 aa d1 bd
       -0.2490601 -0.36471102 0.23840478 -0.10237662
000200 ee c9 a3 be 77 11 f5 bd f1 02 4f 3e 39 3f 17 3e
       -0.31989998 -0.11966222 0.20215966 0.14770211
000210 4d c5 34 3f a3 85 b3 3e 60 33 dc bc
       0.7061356 0.35062894 -0.026879966

root f4 [1, 3]
000000 32 53 02 3b ce b8 88 bf 9f 93 4e bf
       0.0019886014 -1.0681398 -0.80694

bias f4 [3]
000000 1d 91 ea 3e dd 56 e4 be 7d 22 e5 be
       0.45813838 -0.4459752 -0.44752875
