learned_weights.pth (torch, 17560 bytes, 6 tensors)

rgcn1.weight f4 [45, 1, 16]
00000000: 821f a63e a98e 613c 30ba e83e 0f97 fd3e
00000010: 5a8c ba3e b6bd 043f 0f33 fd3d bac7 5d3f
00000020: 4d31 2fbe 50b0 ea3c 6fec 473f 78c3 33bd
00000030: e47f a53e 37de e83e b2dd 9ebe c08d 90bd
00000040: 235b f33d fc58 e83b d315 9c3b afe3 813d
00000050: 74f4 e03d 8207 0e3f 62eb 36be 2dc4 e73d
00000060: 7de9 cdbc 03e2 a43d a5e4 973e d41d bf3b
00000070: 64fa eebb 782b 903d 243a ad3e 56fa cb3d
00000080: c5fd 1ebd c877 d63e 4bc6 6abe bcee 673e
00000090: 96a1 b5bd 0961 463e 9945 213f 06fd 683e
000000a0: 074d 2dbf 1fc5 293e fb8b 613f 2b3f 81be
000000b0: 5203 7e3e 9b63 c2bd ef43 643e 8d17 2b3f
000000c0: 6c4b ab3e fb81 fc3d 99bb 3d3f 60f1 f33d
000000d0: e0c9 483e 53ed a23b 7615 1f3f efee c1be
000000e0: 0280 193f 126c 303e d76c 1abe 4fa3 223e
000000f0: 2db3 23be 4a1e 4e3e 845b 3bbe c22c 1e3e
00000100: 8cda f43d 41ae 063c dd3f 9d3e 1663 393e
00000110: 0555 2d3f 7913 c43d c176 1c3f 7f9c fa3d
00000120: 432e 3e3e 7060 a33c 47cf e13d a858 7c3e
00000130: 5835 bebc c631 bebc 770a 8e3d 951c 8dbb
00000140: 692f 04be a518 283c c0f1 213f f176 d8bd
00000150: 1e22 a63e 3e6a 683e 5977 f3bd 6a66 5c3e
00000160: c0a5 113f aac9 e03e 5e9d f6bd ae9d c0bb
00000170: 3c3d 0a3f 1549 c4bd 4183 cc3e 2763 1e3c
00000180: 7509 963d dc56 a3bc 2f4b 033e f6c7 8b3d
00000190: cf56 6f3d f1e1 643c 1d89 573e 157d a23d
000001a0: dbc8 a4bd 2318 17be 274c 4fbd 34b4 d7bd
000001b0: a73b fe3d 15e6 013c d63a 0a3d 39ee b23d
000001c0: a272 c93d aead cc3e 1662 28be e7a8 e3bd
000001d0: 12b0 05be e6a6 0f3d d4f1 da3e ef3c 173f
000001e0: 079e a2bc dc61 c73e 3c12 fabc 6878 c03e
000001f0: 2975 b2bc 7977 a73c ffc5 9b3e 987f 7d3e
00000200: 2a76 903d d88c 993c b6e0 3f3a 8e6a b93e
00000210: 9695 043f 5688 d33e d29c e4bd 3728 463d
00000220: 8762 843e 8ca7 a7be a96f d13e ae8f a13c
00000230: 9e11 b13e 522c 9dbd 5bbf 11be 0add f33a
00000240: ed12 49bd 89b7 8cbc 4609 443f bd36 d5bc
00000250: 010c 913e 753a 2f3e 93b2 a63e 88a8 ce3e
00000260: 5384 213f 8279 2b3e 430a 06bd 174d 6cbe
00000270: 5340 a0be fb1b 543e 64cb 8dbe b766 a43e
00000280: e1f6 9c3e b80c 9dbc 7669 8d3e aa68 05ba
00000290: 4465 0c3f 911f c03e 5390 1d3f 5a28 2a3f
000002a0: f735 373f 5872 55be 8bd8 633d 50b2 12be
000002b0: f48d 90bd 6493 0abe 1981 ad3d 240d fdbd
000002c0: 038f 153e 1a48 70bc fa5e a73e 00b2 b3bb
000002d0: e81a f3bd c2e3 823c 98d9 0f3e f495 cc3d
000002e0: acc7 50bd cc58 c13d 5d2c 05be 74e1 85bd
000002f0: eb42 e8bc 0b48 86bd 7ab6 9f3c 113b cdbd
00000300: 01b5 d9be 08cf 09be 851e 97bd 15d5 153f
00000310: a657 38be 4916 b03e adf9 0b3f b8d3 a53e
00000320: d213 803e 288a ce3d e505 713e 37e2 1c3f
00000330: 45c0 bcbd b098 86be 4f80 14bf 0e7b 983e
00000340: 5ab7 1d3d 2c83 a8bd 1b15 973e d6bf a43e
00000350: e8d0 e93e 7310 bc3e 8bb2 ac3e 84c3 85bb
00000360: 10f8 8fbd 19f4 bf3e e757 543e 3050 473c
00000370: 7cef 373e 488f 293e 4d16 8dbe 0c4a 53ba
00000380: b404 4f3f 4645 1d3b 4f81 fc3c 078c 5d3d
00000390: d45f 183e 705c 7e3e b797 283d ebbe 0f3f
000003a0: aaf9 9d3e b51e 8d3e 3653 1b3e 8597 4c3e
000003b0: 5926 b13e c8ea 37bc 68a0 5d3e bd18 ccbd
000003c0: d4e7 b6bd 31bd c7bc 7445 eb3c a20a d5bd
000003d0: 2c34 bbbd c883 47bd 1f9c 1e3f 5b60 323f
000003e0: 5c72 f33d 96af 38bb ea0b a23d c572 3b3e
000003f0: df00 253e f2fe 613e 4bd8 ba3d 9444 593e
0.32445914 0.013766923 0.4545455 0.4952931 0.36435205 0.51851976 0.12363254 0.86632884
-0.1710865 0.028648525 0.78095144 -0.043887585 0.32324135 0.45482036 -0.31028515 -0.07058287
0.11882617 0.007090686 0.004763344 0.06342255 0.10984126 0.55480206 -0.17863229 0.113167144
-0.02513575 0.08050921 0.2966663 0.005832413 -0.0072930325 0.07039541 0.3383342 0.09959857
-0.038816232 0.4188826 -0.22927205 0.22649664 -0.08868711 0.19372953 0.6299682 0.22752771
-0.6769566 0.16579102 0.8810422 -0.25243506 0.24805954 -0.094916545 0.2229154 0.6683281
0.3345598 0.12329479 0.74114376 0.11911273 0.19608259 0.004972139 0.6214212 -0.37877604
0.5996095 0.17228726 -0.15080582 0.1588261 -0.15986319 0.20128742 -0.18296629 0.15446761
0.11955747 0.008220256 0.30712786 0.18104205 0.67707855 0.095740266 0.61118704 0.122368805
0.18572335 0.019943446 0.11025863 0.24643195 -0.023218796 -0.023217093 0.0693559 -0.0043063858
-0.1290871 0.010259782 0.63259506 -0.10569561 0.32447904 0.22696778 -0.11887998 0.21523443
0.5689354 0.43903857 -0.12041734 -0.005878172 0.53999686 -0.09584252 0.3994389 0.009667194
0.073260225 -0.019938879 0.12821649 0.06825249 0.058432397 0.013969884 0.21048398 0.07934014
-0.08046123 -0.14755301 -0.050609734 -0.10532418 0.124137215 0.007928391 0.033747517 0.087368436
0.098363176 0.39976257 -0.16443667 -0.111162 -0.13055447 0.035071276 0.42762625 0.5907735
-0.019850744 0.38941848 -0.030526273 0.37591863 -0.021784382 0.020442711 0.30424497 0.24755704
0.07053788 0.018743917 0.00073195563 0.36214107 0.5179075 0.41314954 -0.111627236 0.048378196
0.2585642 -0.32745016 0.40905502 0.019721832 0.34583753 -0.07674469 -0.14233153 0.0018605303
-0.049090315 -0.01717736 0.7657665 -0.026027078 0.2832947 0.17112143 0.32558116 0.40362954
0.63092536 0.1674557 -0.03272463 -0.23076282 -0.31299075 0.20713799 -0.27694237 0.32109615
0.30657104 -0.019171104 0.27619523 -0.00050891435 0.5484202 0.37524083 0.61548346 0.6646782
0.7156672 -0.208444 0.055626433 -0.14325833 -0.070583254 -0.13532788 0.08471889 -0.12356022
0.14605336 -0.014665628 0.3268965 -0.0054838657 -0.11870366 0.015977744 0.14047849 0.09989539
-0.050971672 0.09440765 -0.13005204 -0.065371424 -0.028352221 -0.0655671 0.019496191 -0.10021032
-0.42520908 -0.13457882 -0.07378868 0.5852826 -0.18002185 0.34392002 0.5467785 0.3238809
0.25015122 0.10084945 0.23537405 0.61282676 -0.0921636 -0.26288366 -0.58008283 0.29781383
0.038504936 -0.08228144 0.2950829 0.3217761 0.45667195 0.367313 0.33729967 -0.004082145
-0.07029736 0.3749092 0.20736657 0.012165114 0.1796245 0.16558564 -0.27556077 -0.0008060045
0.8086655 0.002399759 0.030823378 0.05408862 0.14880306 0.2483995 0.04116031 0.5615069
0.3085454 0.2756249 0.15168461 0.19979675 0.3459957 -0.01122541 0.21643221 -0.09965656
-0.089309365 -0.024382206 0.028719641 -0.10402419 -0.0914081 -0.04870966 0.6195697 0.69678277
0.11887047 -0.002818083 0.07912429 0.183055 0.16113614 0.2206991 0.09123286 0.21217567

rgcn1.root f4 [1, 16]
00000000: 32c2 213e acfc 1dbf 3988 083f a59a 45be
00000010: faf3 c2bd 0591 a0bd 6040 173f 72cc ff3d
00000020: 4805 dc3e 7395 3f3f 2c4a 2d3f 4b22 203e
00000030: f195 833d c215 e63e 3bbb c63e d8df 713d
0.15796736 -0.6171367 0.5333286 -0.19297273 -0.09519191 -0.0784016 0.59082603 0.12490167
0.4297278 0.74837416 0.676913 0.15638082 0.064250834 0.44938475 0.3881472 0.059051365

rgcn1.bias f4 [16]
00000000: bc15 883e 028b b5bd 5ce9 b73e ff1f ebbd
00000010: bf64 e83e 1ec0 913e 3470 a43e 536c dc3e
00000020: bde4 a53e 0b77 7f3e da1b b93e ff09 2cbe
00000030: 17be 0abe f58e cd3e ef46 f93d f16e 9ebd
0.26579082 -0.08864404 0.35920227 -0.11480712 0.45389363 0.28466886 0.32116854 0.43051395
0.32401076 0.24947755 0.36154062 -0.16800688 -0.13549076 0.4014813 0.12171733 -0.07736004

rgcn2.weight f4 [45, 16, 4]
00000000: 4273 003d 4e9d bbbc 69bf abbd 7738 e13b
00000010: 0b96 243d 81c8 843a cc66 8abc 4a81 5abc
00000020: 811e af3b c29f e9bd c435 2abe 4086 bdbd
00000030: 36ef 2c3c b4f1 d6bb 84e4 2dbe 06a3 de3c
00000040: e1ae b83d b46c af3b 4fde bfbe 3c15 5f3d
00000050: 9434 17bd 83a7 0ebd 9d4f 17be 3d2a d63d
00000060: 23c9 1cbe 4cf7 ba3d aefe c23d c2b5 2c3e
00000070: 4d7e 05be 64a4 90bd 24c9 82bd 42b8 82bc
00000080: dc93 013f 55d6 aebe 04bc fdbe 97ce f8be
00000090: 901d d63e 34a5 f7be 6245 02bf 4fc4 ddbe
000000a0: 4e53 d43d 31ca aa3d f840 a8bd 0006 d939
000000b0: 9194 9e3d 0248 f2be 1e0e 04be dff5 0d3e
000000c0: bc26 143e 082d 86bd dbc5 ee3d 95f1 54be
000000d0: 723e ff3d e5fa f0bb aa26 bdbd ba5a 03bc
000000e0: e81e 253e 8bfe 143e e0eb 5439 4fed a2bd
000000f0: 75f9 3f3e c2b9 1fbe 76e3 bbbe b168 d3be
00000100: 3d76 603c 4177 0ebc 79b0 cabd c41e 83bb
00000110: c1e1 64bb dac2 493d 744e 203c 4c33 1a3c
00000120: c19e 883d 16d8 91ba 7d43 f5bd b6ce 96bd
00000130: aa32 ca3b 94ab 2bbc 5b4e 19bd df63 c43b
00000140: 467b 753d 4b2d 5cbc 53e5 9d3d 462c 38bc
00000150: 6f2f d83d 0438 be3c e1e5 8ebd 3230 f13d
00000160: 88ae 613a 5dc7 3bbe d4ca 71be 26f6 ffbd
00000170: 5d5d 953c c4be b0bd 134e 0dbd 5bb7 4a3d
00000180: 4da9 693d 88e5 bfbc 545c 9bbd 4e24 1b3d
00000190: c8ee aa3a 8e73 10be 22b8 4bbe f2a6 16bd
000001a0: 4f41 ef3c da43 e6bd 8583 0ebe 8abd 17be
000001b0: 0575 693d 3fa9 5fbd 0b48 3abd ac56 d4bd
000001c0: ca27 383d d781 a53c 55c4 733c 621e 9c3c
000001d0: 5c3d 0a3a c472 84bc 0a61 25bd 8a7d 20bd
000001e0: 9e7f dcbc 8d0d 31bc e826 d93b 8a6f d23b
000001f0: 9260 0ebe 004f b338 7427 c73d 68dd 963c
00000200: f718 72be a82d 35bd 65df 593e 741c 313c
00000210: 72dc 03be c401 083e 56c3 123d cf9a ea3d
00000220: 1f0e fdbd 2b88 d0be 9a2d 2cbf dfa3 713c
00000230: 37f0 41bc 9e4b 373b 586d 233e 5cf7 9abb
00000240: e4a3 d5bd de21 c1bc c1f5 2f3e 9ca6 13bd
00000250: 9007 063d 3414 b2bc d22a d3bb 7d25 e6bc
00000260: aca8 0fbe 2db1 44bf 0090 8d3e 6155 43bf
00000270: a30d 063f 20b7 16bf 34dc 863e 20d2 d0be
00000280: cab1 0f3f d6ec 8a3c 8693 253e be01 afbd
00000290: a587 b8be 2cf1 583e de6b 01bf 9829 eebe
000002a0: 4a9a ccbe 70ed 91be bc5d 363e 0d74 09bf
000002b0: 8b15 f43d 7c98 31bf 8e72 55bd cb09 babe
000002c0: cd1f 84bb 6829 543c 75a1 98bb a02b 86bc
000002d0: d522 75be dbf7 b8bd 60b0 1c3e 0e14 bdbd
000002e0: 86e8 f73d 0447 dfbe b8b6 a0be 7fc1 c3be
000002f0: 7a34 63bb b967 c3be 2a88 9b3e 5a0d b23d
00000300: cf55 0d3e 43f9 983e 7d76 063e ceba 15be
00000310: c37b 903d 76a2 e83d 59eb 473e 527f 22bd
00000320: 3895 0cbe 29a7 de3d affa 55be 9262 00bf
00000330: dd29 41be f4fe 07bf 845e 16bf 353f d7be
00000340: 8a3f e03c 9a94 6a3c 24d5 33bb 495a a7bc
00000350: 1e4f 033f 676c 01bf 7150 2ebf 7c9e c33d
00000360: 6369 703c 8eb0 cbbe 7a0a 34bf 24cd e9be
00000370: 24ba 633e 70d2 303c bfc9 f7bc 98d0 12bd
00000380: 0d9e 4cbe fb72 57bd 3174 5abd 52f3 8cbd
00000390: 2c9a 103f e890 2fbe 710a 64bd 3152 2cbf
000003a0: f6cc cfbd 9196 12bf 02cf c7be ff0c 4ebe
000003b0: 1942 b43c 7b23 ddbe ad7b e63c 38fe 1bbe
000003c0: bbd7 e83e 84fe bbbe 0e02 b53e aa61 6ebe
000003d0: d6a8 a13d 019a bbbb 6c06 67bd 5dd4 56bd
000003e0: 63fd 86be a9e2 9a3e d501 d3be e0fa f3bd
000003f0: 2835 313f 44e9 793e 2aee 49be c813 d6be
0.03135992 -0.022902157 -0.08386118 0.006873186 0.040182155 0.0010130556 -0.01689472 -0.013336489
0.0053442125 -0.114074245 -0.16622072 -0.09254122 0.010555079 -0.006559575 -0.16981703 0.027177345
0.090177305 0.0053535346 -0.37474295 0.05446361 -0.036915377 -0.03482772 -0.14776464 0.10457275
-0.15311103 0.091291994 0.095212325 0.1686621 -0.13036461 -0.07062605 -0.06386021 -0.015957002
0.5061624 -0.34147897 -0.49557507 -0.48595116 0.4181943 -0.48368227 -0.5088712 -0.43313834
0.103674516 0.08339346 -0.08215517 0.00041393936 0.077431805 -0.47320563 -0.1289601 0.13863324
0.14467901 -0.06551558 0.11658832 -0.20795281 0.124630824 -0.0073541277 -0.0923589 -0.008017236
0.16125071 0.14550225 0.00020305766 -0.07955419 0.18747504 -0.15598205 -0.36696976 -0.4129081
0.013700065 -0.008695425 -0.09896941 -0.0040014703 -0.00349246 0.04925809 0.00978433 0.009411644
0.06670905 -0.0011127021 -0.11975763 -0.07363646 0.0061705904 -0.010477919 -0.03742824 0.005993351
0.059932016 -0.013438533 0.07709756 -0.011241024 0.10555922 0.02322007 -0.0697744 0.11776771
0.0008609076 -0.1833777 -0.23612529 -0.12498121 0.018232996 -0.08630136 -0.034498286 0.049491268
0.057046223 -0.023424879 -0.075859696 0.03787642 0.0013041133 -0.1410658 -0.1989446 -0.036780305
0.029205946 -0.112434104 -0.13917358 -0.14818397 0.056996364 -0.054604765 -0.04547886 -0.10368094
0.04495982 0.020203514 0.014878352 0.019057456 0.00052734255 -0.016168006 -0.040375747 -0.039182223
-0.026916321 -0.010806453 0.0066269524 0.006421988 -0.13904026 8.5501e-05 0.09724322 0.018416122
-0.23642336 -0.044232994 0.21276625 0.010810006 -0.12877062 0.13281924 0.035830818 0.11455309
-0.12356209 -0.40728888 -0.6725708 0.014748543 -0.011837057 0.0027968655 0.1595968 -0.0047291946
-0.1043165 -0.02357572 0.17183591 -0.036047563 0.032722056 -0.02173815 -0.0064443136 -0.028094048
-0.14029187 -0.7683285 0.27648926 -0.7630215 0.5236456 -0.58873177 0.26339877 -0.40785313
0.5613066 0.016958635 0.16169557 -0.08545254 -0.3604099 0.2118575 -0.5055522 -0.4651611
-0.39961463 -0.28501463 0.17809194 -0.53692704 0.119181715 -0.693733 -0.0521112 -0.36335596
-0.0040321113 0.012949325 -0.004657919 -0.016378224 -0.23939069 -0.0903165 0.15301657 -0.09232341
0.12104897 -0.43608868 -0.31389403 -0.38233563 -0.003466873 -0.38165072 0.30377322 0.08693953
0.13802265 0.29877672 0.13131137 -0.14622042 0.07054856 0.11359112 0.19523372 -0.039672203
-0.13728797 0.10871727 -0.2089641 -0.50150406 -0.18863626 -0.531234 -0.5873797 -0.4204041
0.027374048 0.014317656 -0.0027440274 -0.020428794 0.512926 -0.50556034 -0.68091494 0.09551713
0.014673564 -0.39783138 -0.70328486 -0.45664322 0.22238976 0.01079236 -0.030247567 -0.03584346
-0.19982167 -0.05259989 -0.053333465 -0.06882347 0.5648525 -0.17145121 -0.05567402 -0.67312914
-0.10146515 -0.57260996 -0.39025122 -0.20122145 0.022004174 -0.43191132 0.028135145 -0.15233696
0.4547709 -0.36717618 0.3535313 -0.23279443 0.07893531 -0.005725146 -0.05640261 -0.05244862
-0.26365194 0.30251053 -0.41212335 -0.11913085 0.69221735 0.2440539 -0.19719759 -0.41811967

rgcn2.root f4 [16, 4]
00000000: 35ec 5fbe 55a7 32bf b691 0bbf 50aa 32bf
00000010: f6b3 493d ef39 d0bd d8c5 133e 5ba6 60bd
00000020: 0419 4fbd 0f4f 78be 7d28 37bf 4f4b 55bf
00000030: 0cdb 58be d338 583e 8d1f ff3e 33d1 6e3d
00000040: 0f81 303f 63b5 bc3d ab0f 81bf 9c20 0dbf
00000050: a677 cd3e 3ef6 20bc 53da a83e 8cd7 3dbf
00000060: dd4d 863e ad2d 3ebf 75d2 10bf 8b12 9dbe
00000070: 0414 05be 7d6f 1ebf c793 55be 8407 5ebf
00000080: cd3d 063f 725a 50bf 8020 7e3d 35d6 51bf
00000090: e1ee 1a3f 44bd a3be 5105 3dbe d414 15be
000000a0: 6e67 363f 8fd2 0bbf af4e 1e3e 1c2e 9fbe
000000b0: 1d7b 4c3e 2479 a7be bb1d a03e 56ad e43d
000000c0: 7693 d3bd ab57 a03e 881a 6dbe dcd0 843e
000000d0: e0eb 013f 80d6 53be d6de 5abe 4e67 043e
000000e0: bbde 953e 8fa5 503e 8382 b3be 0fdc 6cbe
000000f0: e1c4 ef3d 9f4f 783d 194e 11be 2796 67bd
-0.2186745 -0.6978658 -0.5451921 -0.69791126 0.04924389 -0.101673 0.1443094 -0.05484615
-0.050560966 -0.24248908 -0.71546155 -0.83318037 -0.2117731 0.21115427 0.4982876 0.058304977
0.6894693 0.09214284 -1.0082906 -0.5512788 0.40130347 -0.009824334 0.32979068 -0.74157023
0.2623128 -0.74288446 -0.5657113 -0.3067821 -0.12995917 -0.6188887 -0.20857154 -0.8673022
0.5243805 -0.8138801 0.062042713 -0.8196748 0.6052075 -0.31980336 -0.1845906 -0.14558727
0.7125157 -0.5461816 0.15459703 -0.31089866 0.19968839 -0.3270961 0.31272683 0.11165874
-0.1033086 0.31316885 -0.23154652 0.25940597 0.5075054 -0.20687294 -0.21374068 0.12930033
0.29271492 0.20375656 -0.3506051 -0.2313082 0.117074735 0.060622808 -0.14189948 -0.05653968

rgcn2.bias f4 [4]
00000000: bfda 7e3e 16c6 7fbe 642d 8ebe 2613 82be
0.24888133 -0.24977908 -0.27769005 -0.25405234
