learned_weights.pth (torch, 17560 bytes, 6 tensors)

rgcn1.weight f4 [45, 1, 16]
00000000: c372 2b3e 166f 873e 968c 0e3e 3b98 a3bd
00000010: 9dfd 293f 2ada 8a3b 1dd9 8c3c f98b ed3e
00000020: c0e7 ec3a d0c1 0a3e febd ed3d 08eb 213f
00000030: 0709 c83d 956c ca3e 3ff2 603e abd8 11bd
00000040: 27f7 c23e a52e 093e 721b 123e f566 42be
00000050: f9a9 cabc 6e7f 1a3d 23bd 703b 1ebc 213f
00000060: 7589 8dbc e06b 783c 1ba4 093f 5b94 f73e
00000070: 9cc6 85bc 77bb 563e 8947 ce3d a50a 263f
00000080: eae3 02be 8889 513f 64e6 f8bd ee23 75be
00000090: 2048 a83e f726 b6bc d8de 54bc 918f e63e
000000a0: 227e 1d3f 4564 b53e b1b1 713d 99b7 613f
000000b0: da49 383c 2b0c c83d c890 13be ff0d 2c3d
000000c0: b844 ee3d b023 833b a176 0e3f ef7d 2fbe
000000d0: e184 d03d c048 03bc 041c dcb8 14ee 5f3f
000000e0: e02f 213f 05d9 f2bd 4856 f23d da70 e43d
000000f0: 11d4 88bb 3bde 0f3e 7889 d9be e712 27bb
00000100: f585 f73e fa9a 7dbd bac0 2e3e d697 2ebe
00000110: 3192 7c3e b5dd 8abb cb50 f13a 05f5 693d
00000120: e9a9 0e3f 6aa4 d1bc b688 373e a7ea 823e
00000130: c211 08be 77f9 c63e 3414 ad3d 3df1 993c
00000140: 651d ba3d a58a a03e 1567 b43e e90b 163e
00000150: 9aa8 503d e79f acbd 70f2 03bb 52ca 95be
00000160: ed40 573e 66e5 8b3b 250e e33e 9973 883d
00000170: 7c2f 6b3c 07ef 183e fa43 a83d 4a84 4ebd
00000180: 055b ef3d f5fb bf3e 1485 c33d 1811 183e
00000190: bfff a53c fac5 9a3c 6c19 053c becc 363e
000001a0: 9d1b 683e 08ed 1cba 5897 763d 60bb 393e
000001b0: e738 81bd 0b5c 613d c584 08bc e052 9e3b
000001c0: 8528 fdbc bb0a 8d3e 0982 37be 9495 89bd
000001d0: 6618 0f3f 6724 0fbd 08ae 7c3b a991 f33d
000001e0: 900a 5b3f ae33 833c 7e66 73bd e5d0 c93e
000001f0: fb1c 2bbd 0f34 673e 1a82 c73e 626f b1bd
00000200: 7a33 413e 12dd ad3e 6ccb 443d 771c a2be
00000210: 9d6a 943e edfc bb3e 1875 883c e9b6 f5bc
00000220: bb1d d83e e73e 0b3c 7ee5 f33e 2267 4b3f
00000230: bce8 f4bb 0a6d 2ebe b33b 033f 5f77 193d
00000240: 09da 1c3d f8ca 4d3f 7f92 3f3f ecde 36be
00000250: b68a 193f b507 943a 3688 d5bd 834c 343f
00000260: 0d69 c23e 4590 413f 0e18 86bd 68bf e43d
00000270: 6a7b 56b9 932a 453e bf85 9f3e 52c0 92bd
00000280: 8d09 0e3f d9ef 533f 0cac 52be 9624 87be
00000290: 3716 f1ba fe94 583c c09c 783d 14df ba3e
000002a0: a4e5 513f 92c0 0cbe f9f5 9fbd fe3b 24be
000002b0: f802 aa3b fa28 7abe a5f1 37bd dc14 c5bd
000002c0: bc47 143e dbfd c83e f9b9 e83d 16b4 0abe
000002d0: 1f04 06bc 4ec4 a8bb 1c4a d93b f793 aa3d
000002e0: d5f5 b03d 1b4d 023c f848 3a3d bbca c53d
000002f0: 57ff 923c 4f19 a33d 5c14 1d3c 42f2 02bd
00000300: 6c54 37be 9c3f 5bbd 0905 103f 14f4 093b
00000310: 7cc7 ec3b bb86 4abb 413c 99bc 2893 d4be
00000320: 1466 34bf 8b0f 19be 5aa0 aabe bb76 243f
00000330: 253f aebd 8b7e c6bd 766c d5bc b3d1 d23e
00000340: 5d93 303f c232 94bd c164 e63d ea0e 4dbe
00000350: 64d8 8e3e 2e31 873e ee70 a5bb 6b02 283f
00000360: fd8c 943d 662a 99b9 0973 cd3e eb2e a4bd
00000370: 8a01 dcbb 1023 2fbf a33d 153f a433 8dbd
00000380: 0c70 593f ec5a f63c 3481 2a3e caaa 95bd
00000390: 7edd f83e 2eb9 cf3e 12f3 b53d eaf8 bc3d
000003a0: d92d 103f bd43 2bbd 86e4 9b3e 07f3 243e
000003b0: 0a0a e5bb 5526 793e 63d2 023d afab e1bd
000003c0: 4d06 693e bbe6 513f 5338 8a3d 4ea8 933e
000003d0: ce4a 393b 5e2c 5e3c 237f 2dbc 6a47 773c
000003e0: 921e f13d 7a9a dfbd 855c 993e b49f 193e
000003f0: a409 7ebb af71 c43e bbbe 5abe 3a03 b73c
0.16742997 0.2645194 0.13920817 -0.0798802 0.6640261 0.004237433 0.017193371 0.46395853
0.0018074438 0.13550496 0.11608504 0.63249254 0.09767347 0.39535967 0.2196741 -0.03560702
0.38079187 0.133967 0.14268282 -0.18984587 -0.024739252 0.037719183 0.0036733828 0.6317767
-0.017277459 0.015162438 0.5376603 0.48355374 -0.016330056 0.2096995 0.10072238 0.6485999
-0.12782255 0.8185048 -0.121533185 -0.23939487 0.32867527 -0.022235377 -0.012992583 0.45031407
0.6152059 0.35428062 0.05900735 0.8817077 0.011248076 0.09767946 -0.14410698 0.042005535
0.11634201 0.004002057 0.55649763 -0.17137884 0.10181595 -0.00801295 -0.00010495636 0.87472653
0.62963676 -0.118577994 0.11832863 0.11154337 -0.004175671 0.14049618 -0.42487693 -0.0025493444
0.4834439 -0.061915375 0.17065707 -0.17050108 0.24665143 -0.0042378553 0.0018410919 0.057118434
0.5572801 -0.025591094 0.17923245 0.2556965 -0.13288024 0.38862202 0.08451119 0.01879179
0.09087638 0.31355777 0.35234895 0.14652981 0.05094204 -0.084289365 -0.0020133518 -0.2925592
0.21020861 0.00426929 0.4434673 0.066626735 0.014354583 0.14934932 0.082160905 -0.05041913
0.116872825 0.37496915 0.09546867 0.14850271 0.02026355 0.01889323 0.008123737 0.1785154
0.22666784 -0.0005986248 0.060202926 0.18137884 -0.063096814 0.05501942 -0.008332436 0.004831657
-0.03090311 0.2754725 -0.17920698 -0.06717983 0.55896604 -0.034946825 0.003855588 0.11893017
0.8556299 0.016015854 -0.059423916 0.39417186 -0.041775685 0.22578453 0.38966447 -0.08663823
0.18867293 0.33957726 0.04804556 -0.31662342 0.2898759 0.36716405 0.016657397 -0.029994445
0.42210183 0.008498884 0.47636026 0.79454243 -0.007474033 -0.17033783 0.5126297 0.037467357
0.038293872 0.8038783 0.7483291 -0.17858475 0.5997728 0.0011293801 -0.10426371 0.7042925
0.37970772 0.7561076 -0.06547557 0.1116932 -0.00020454606 0.19254522 0.31156728 -0.071655884
0.55483323 0.82787853 -0.20573443 -0.263951 -0.0018393461 0.013219116 0.060696363 0.3649832
0.8199103 -0.13745335 -0.078105874 -0.1603851 0.005188342 -0.24429694 -0.044908185 -0.09623119
0.1448049 0.39256176 0.113635965 -0.1354526 -0.0081796935 -0.0051503545 0.006631149 0.08329003
0.08640639 0.007952954 0.045479745 0.096578084 0.017944021 0.079638116 0.009587374 -0.031969316
-0.17903298 -0.05352746 0.56257683 0.0021050023 0.007225929 -0.003090306 -0.01870549 -0.4151852
-0.7046826 -0.14947335 -0.33325464 0.6424367 -0.085081376 -0.09692105 -0.026052695 0.41175613
0.6897486 -0.07236244 0.11249686 -0.2002522 0.27899468 0.2640471 -0.0050488627 0.6562869
0.07253454 -0.00029214023 0.40126827 -0.080167614 -0.0067140507 -0.68412876 0.58297175 -0.06894615
0.84936595 0.030072652 0.1665085 -0.07307966 0.48606485 0.40570968 0.088842526 0.09227164
0.5631996 -0.041812647 0.30447787 0.16108333 -0.006989722 0.24331029 0.03193892 -0.11019074
0.2275631 0.8199269 0.06749024 0.28839344 0.0028273347 0.013560383 -0.010589394 0.01509271
0.11773409 -0.10918136 0.299534 0.15002328 -0.003876307 0.38367984 -0.2136182 0.022340406

rgcn1.root f4 [1, 16]
00000000: c984 d93e 2dbe 283e 9ccf 07bd 590c 463e
00000010: f96f dbbc 2250 07bf 69eb 81be 64f6 c93e
00000020: af88 913e e8ff dabe 7e2e c13e 64d4 223f
00000030: e0d8 18bf 99d7 133f f5de 47be 0546 7f3c
0.4248412 0.16478796 -0.033156976 0.19340648 -0.026786791 -0.5285665 -0.25374916 0.39445794
0.28424594 -0.42773366 0.37730783 0.6360533 -0.59705925 0.5775085 -0.19518645 0.015580659

rgcn1.bias f4 [16]
00000000: 7f8c d03e a9d4 ce3e 8f1e f73e 054c 2bbe
00000010: 5ae1 923c 3454 08be 2e62 3fbd 4a46 c23e
00000020: 6061 d53e af58 e9bd 91be 483e 3a4d ba3e
00000030: 967a c0bd 3f99 26bc ae71 2dbe a7ad 33bd
0.4073219 0.40396622 0.48265502 -0.16728218 0.017929722 -0.13313371 -0.04672449 0.3794425
0.41675854 -0.11393868 0.19603945 0.36387044 -0.093983814 -0.010168373 -0.16937897 -0.04386678

rgcn2.weight f4 [45, 16, 4]
00000000: 7e8b 06bc 9fdd 9a3d 5827 dd3d afd4 35be
00000010: 9c30 673e 7fcd 76be 661b 6b3c 88b2 8cbe
00000020: c1f5 ae3d dfa2 8dbe 84a6 9cbd e2ba d6bd
00000030: ce96 61bd 9d98 c73c 23aa 823d 5fcd 283d
00000040: ea2b d73e fe72 99be a592 88be 42e0 9dbe
00000050: d01e edbd f419 8cbe 5cc0 bcbd ed00 1cbe
00000060: 7cf4 85bc 7cfb feb9 5711 3dbd 2c9b 93bd
00000070: 41a1 4c3f 2851 8ebd ceda cd3d 6cec 56bd
00000080: ebcf f7bd 875d 793d e3cf f63d ec92 bdbc
00000090: 4c74 7a3a 8b1e d5bd 3099 85ba d28d 9a3d
000000a0: 1c52 e93e 3d45 0fbf 9317 74be 1d8b 193e
000000b0: c912 3a3f 800b b1be a17a 0fbf 3d09 15be
000000c0: cae4 4ebc ef19 0b3c 022f e73b 9c40 0bbc
000000d0: 7e02 c83d 2a56 c6be 2aa9 bb3d 88ef 89ba
000000e0: 6d2b 33be dfa0 34be 5d8e b0be 5500 88be
000000f0: 01cd 053d af39 79bd e4c5 96bb 89d4 923d
00000100: 31a6 0a3e 2c54 4bbd 95dc 98bc 927f b0bd
00000110: adf5 863d bca4 09be 243d b43b d4b2 71bc
00000120: e6e2 5e3d e65f 77bd c899 0a3a ab53 71bc
00000130: 229b 5cbb 6a98 0f3c 0907 493c 12bd 543a
00000140: 91d3 2d3d 7b98 41bd ab5a 403d b589 2c3c
00000150: 7365 6dbc e2e9 233c 88af 90b8 c289 833c
00000160: a839 d639 8969 d9bb 9d3d 113a 8f2d 0bbc
00000170: b038 453e 882b 123d e16a 503b 0399 03bd
00000180: 16a9 9bbd 4ed6 bc3d c6f5 79bc 8e65 c6bb
00000190: 33b2 743d 05bc 93bc dc55 3dbb c01b a93b
000001a0: ad55 9a3d a9b9 5abd a332 85bc 6fca 7dbd
000001b0: 0ff3 d83e 97a7 1ebe fbe8 5ebd 560e a3bd
000001c0: ba10 923c b454 d639 c8dd 53bd 64bd 86bd
000001d0: 960f 9f3e 33a9 01be 0f0f e5bc 7821 453a
000001e0: 95d8 43bc 8f5f 8e3c 268f 12bc 8ea8 343c
000001f0: d11b 8abd 598e 40bc 6fd0 24bc 95ee 34bd
00000200: b840 aebe ffb9 84be bac4 1e3e 0387 8ebe
00000210: 5786 8dbe 323c 52be bf66 d43e b994 69be
00000220: 8cfb 92be 1bf3 7bbe f323 c43e d9f6 babe
00000230: 6675 46be cd5f 913d 9498 e8bb f4a8 55bd
00000240: 65b6 ce3d 9e91 34be 65fd 0b3e efb0 acbe
00000250: 88fb 783d 7ca6 d83d ff36 8abb b831 073a
00000260: 7cbc f03b f983 253c 8854 bc3a 6a91 8bba
00000270: aeb2 bc3e 7dd4 ffbe 81bf a4bb 8ed3 6d3d
00000280: db15 8fbe 1178 d8be f84b ff3c 1fce 1cbf
00000290: 74bf 70bb 5f17 003c 6be5 e6bb 16a0 3cbc
000002a0: 1b96 29be 8fc1 3bbe bd02 3f3e 64ad 59be
000002b0: c132 1c3f 57f4 fabe 7abe f63e fc00 49bd
000002c0: 164d 863c e2f4 03bb 45b2 a93d d881 47bd
000002d0: f7d6 b13c 2150 65be e483 cdbc 487a ebbd
000002e0: 3892 1a3f 8e69 97be 1e47 363e 312e df3d
000002f0: f71f e7bb a6d0 e2bb 13f2 b4bb 076e c23c
00000300: 726d e13e 3630 4abe 56d4 033d 64b5 a5bd
00000310: 9468 f63e 95d4 1dbf 217f eabd 0e4e 263e
00000320: 9622 803e 9348 81be 8202 92be 9a82 2bbf
00000330: 4ef0 d13b f641 9bbb 9dd9 7f3b eb0b 3d3d
00000340: edc3 d7bd 1e92 93bd afd4 503d 5a5a 933d
00000350: 0e58 183b 7d54 a93c 9de3 593c 94a4 163d
00000360: 73cd 533c 1753 90bc 38d3 3a3d bbcf 8d3c
00000370: 6a97 083f bcc4 a0bd 6437 593d 1f7b 8b3d
00000380: 7cda d3bd 0d45 40be 5d91 403d ce22 eabb
00000390: 0f6d 9b3c e08d 10bf 0964 ad3e f36e a13e
000003a0: 1150 c33d 335d a3be 58c0 8f3e 6cbc 72be
000003b0: cbfb 093f bc01 2cbf 8036 24bf 4681 80be
000003c0: a7e3 1fbe 4545 71bd 97d9 033d ebaa f53d
000003d0: 4db9 1dbd 3802 28bf 774e 17bf fb72 533d
000003e0: 1096 abba 774e 75bc 525c 32bc e83d c8ba
000003f0: fced 67be 6cc3 22bf e2d8 b9be b312 2cbe
-0.0082119685 0.07561802 0.1079852 -0.17756914 0.22577137 -0.24101828 0.014349794 -0.2747996
0.085429676 -0.27663323 -0.07648948 -0.10484864 -0.05507546 0.024364764 0.06380107 0.041211482
0.4202569 -0.29970545 -0.2667438 -0.30835158 -0.11578143 -0.2736355 -0.09216377 -0.15234728
-0.01635193 -0.00048634026 -0.046159115 -0.07207331 0.79933554 -0.06949073 0.10051499 -0.052471563
-0.12100204 0.06088021 0.1205137 -0.023141347 0.0009554073 -0.10406216 -0.0010192748 0.07546581
0.45570457 -0.55965024 -0.23837118 0.14994474 0.72684914 -0.34579086 -0.5604649 -0.14554305
-0.01262779 0.00849007 0.0070551643 -0.008499291 0.097661 -0.38737613 0.09163125 -0.0010523656
-0.17497034 -0.17639492 -0.34483615 -0.26562753 0.03266621 -0.060846027 -0.004601227 0.07169444
0.1353996 -0.04964082 -0.01865987 -0.08618082 0.06589828 -0.13441747 0.0055004526 -0.014752109
0.054415606 -0.06039419 0.00052871974 -0.014729421 -0.0033661802 0.008764366 0.012269744 0.0008115332
0.042438094 -0.047264557 0.046961468 0.010530879 -0.014489519 0.0100044925 -6.89915e-05 0.016056899
0.00040860218 -0.006634895 0.0005540492 -0.008494749 0.19259906 0.035686046 0.0031801986 -0.032128345
-0.0760061 0.09220563 -0.015256351 -0.0060545867 0.059740257 -0.01803399 -0.0028890288 0.0051607788
0.075358726 -0.053399716 -0.016259497 -0.061960634 0.4237294 -0.15493618 -0.054421406 -0.07961719
0.017830241 0.0004088037 -0.05172518 -0.06579092 0.3106658 -0.126622 -0.027961282 0.0007519941
-0.011953493 0.01737955 -0.008945262 0.011026515 -0.06743587 -0.011752688 -0.01005946 -0.044172842
-0.3403375 -0.25923154 0.15504733 -0.2783738 -0.27641556 -0.20530775 0.4148464 -0.2281064
-0.2870754 -0.24604456 0.38308677 -0.36516455 -0.19380721 0.07098351 -0.007098267 -0.05216308
0.10093383 -0.17633674 0.13670881 -0.3372874 0.060786754 0.105786294 -0.004217982 0.000515725
0.007346688 0.0101022655 0.0014368454 -0.0010648195 0.36855072 -0.49966803 -0.005027712 0.058063082
-0.27946362 -0.42279103 0.031164154 -0.61252016 -0.0036735209 0.007818072 -0.0070463917 -0.011512777
-0.16561167 -0.18335555 0.18653388 -0.2125755 0.61014944 -0.49014542 0.48192197 -0.049073204
0.01639418 -0.0020134975 0.08285955 -0.048707813 0.021708949 -0.22393848 -0.025087304 -0.11497933
0.6037936 -0.2957272 0.17800567 0.10897482 -0.007053371 -0.0069218455 -0.0055220216 0.023734106
0.44028813 -0.19744954 0.03218492 -0.08091238 0.48126662 -0.616525 -0.11450029 0.16240713
0.25026387 -0.25250682 -0.28517538 -0.6699616 0.0064068204 -0.0047380878 0.003903962 0.046153944
-0.10535417 -0.07205604 0.05098408 0.071949676 0.0023245844 0.02067017 0.013298896 0.036778048
0.012927401 -0.017617745 0.04561159 0.017310968 0.5335604 -0.07850024 0.05303134 0.06810593
-0.10344407 -0.18776341 0.04701363 -0.0071452623 0.018972902 -0.56466484 0.33865383 0.3152996
0.09536756 -0.31907043 0.28076434 -0.2370469 0.5389983 -0.67190146 -0.6414566 -0.25098628
-0.15614186 -0.05890395 0.03218993 0.11995491 -0.038506795 -0.65628386 -0.591041 0.051623326
-0.0013090987 -0.014972321 -0.010886269 -0.0015277239 -0.22649378 -0.6357944 -0.3629828 -0.16804008

rgcn2.root f4 [16, 4]
00000000: edee afbd 5188 07bf 7b0c 44bf 36e7 57bf
00000010: 091a 573f 5355 cabe e323 03bf 31da 2cbf
00000020: a588 3e3f e0de 8fbe 101c 5e3e adfc 3fbf
00000030: 293f 94be fcb3 fd3c 09f3 8abe ec3e 19bf
00000040: 3dc4 3fbe 86cb edbe 21a8 b9be 3f2f 80be
00000050: fc28 79be 5ab3 52be 3d97 263e 033c 55bd
00000060: 1842 8dbb ae2b 733c bb43 ac3d b3fa f73b
00000070: cf0a de3c ee4e 4bbe dcfb 54bf 27b6 4dbf
00000080: 8e64 563f c67c 10bf 0717 17bf f213 b2bd
00000090: c437 cf3d 5c96 38be 97e4 50be 99b7 6cbe
000000a0: 5522 673d a5d9 f7be c296 2cbf 7609 433e
000000b0: 013f 25bd 0237 84be 341d e9be a040 26bf
000000c0: 7b1e 143b 992f 4bbc cca5 2cbe 314e dfbb
000000d0: 44e2 7b3e 3b57 90be 94a3 26bf cc4c b93c
000000e0: a6cf 86be ced1 a2bd 46c3 44bd d0fb 6e3e
000000f0: b475 8dbe cad4 e83d 5fab 523f 5dd3 2cbe
-0.08590493 -0.5294238 -0.76581544 -0.84337175 0.840241 -0.39518222 -0.51226634 -0.67520434
0.74427253 -0.28099728 0.21690392 -0.7499493 -0.28954437 0.030969612 -0.27138546 -0.59861636
-0.18727203 -0.4644434 -0.36261085 -0.25036046 -0.2433204 -0.2057623 0.1626863 -0.052059185
-0.0043108575 0.014841957 0.08411356 0.0075677275 0.027104763 -0.19854328 -0.83196807 -0.8035607
0.83747184 -0.5644039 -0.5901951 -0.086952105 0.10118058 -0.18026108 -0.203997 -0.23116912
0.056429226 -0.48408237 -0.6741754 0.19046578 -0.04034329 -0.25823218 -0.45530093 -0.6494236
0.0022601176 -0.012401485 -0.16860121 -0.006814741 0.24598032 -0.28191552 -0.6509335 0.022619627
-0.26330298 -0.07950173 -0.04803779 0.23338246 -0.27628863 0.11368711 0.8229274 -0.16877504

rgcn2.bias f4 [4]
00000000: 1954 9d3e 127a 9fbe 8efc 6fbe 5ace 8fbe
0.30728224 -0.3114782 -0.23436186 -0.2808712
