learned_weights.pth (torch, 17560 bytes, 6 tensors)

rgcn1.weight f4 [45, 1, 16]
00000000: d327 03be a56b 2ebe bc17 d03e 9d49 9bba
00000010: facf b03d 43d2 883e 0bd7 b93c bd3f 993b
00000020: a14b 2a3e 9c42 1dbd addd 853e 7bf4 b0bd
00000030: f810 d53e 95d8 ab3e 6c22 c73e d36c 85bb
00000040: 90c6 03be 8e49 abbd b444 bd3c 10b3 0abc
00000050: 6802 003e 6a8d ecbd 9a18 e13d 3ac9 2f3d
00000060: 8a70 efbe b637 d83e 324e 033f f98b 9c3e
00000070: dfa1 d43c e463 d939 17bc 58bd e7c3 76be
00000080: 461d bebd a8d3 13bf f80b 843d 8b36 02be
00000090: 1bfb 81be f3ce 41be 969f b03d 9756 4f3e
000000a0: 2e36 c5bd 5b77 633e dde9 bf3d f065 c6be
000000b0: 1a82 a6bd 1ab8 be3b 94f2 743d fad0 d3be
000000c0: 2698 acbb a6ab 82be 7af2 06bc 9ecb 433a
000000d0: 9ddd 3b3e c88f 1a3e 2026 03ba 2987 ee3e
000000e0: 8aa4 0a3f a5c9 363f 4613 333f ab32 773e
000000f0: 2981 573e 67da de3e 347e fe3e c499 8fbe
00000100: 1007 7d3b 677e 353e af04 233f 5b10 57bc
00000110: d6b4 c0bd 28cc 603e 6423 9a3d 4f62 adbd
00000120: c609 06be 0e5e 783e 9bbb 453e c2bd e13e
00000130: da6f fb3d d597 5c3e 0049 393e d6d4 75be
00000140: dd8c 303e 969b 523f d99c a6be 8b7b 80be
00000150: 7b2c d03e f30d cc3e 92fa 203e da96 93bb
00000160: 087a f73e 82ab b03d 24f1 f83e dba5 9e3d
00000170: ea87 fa3e d09a 6a3e 77d8 c8be cb8b ba3d
00000180: c0be 10bd 4126 ccbc 3ef2 8fbd 145e f23d
00000190: 5b16 1e3e 9284 163c d038 173d e5b3 07bd
000001a0: 1f13 653d 22f1 193d 4e9d 033e ec1b 903d
000001b0: 3c53 fcbd d935 8a3c 1ea2 ad3c 7c0c 7f3c
000001c0: 57fe 7dbc 8402 94ba 6391 c2bd a18c 8a3a
000001d0: 61bf da3d 61f4 97be db15 513e f088 de3d
000001e0: 8c1d c13c a0d8 cc3e ddd7 c33e 9f01 31be
000001f0: 3694 02be 0c53 263f 6c3c c1bd 0630 d53e
00000200: e0a7 173e 982d 403e 56dd c5bd daa7 fbbe
00000210: c8ff a03e 3911 223f 27b9 0f3e f503 91bd
00000220: 84e2 c7bc 7391 20be 0416 c03e d28a 133e
00000230: e2ab a73e 7955 433e 8193 9cbe 9bbe a13e
00000240: 7c7a 09bc 9db4 823e f43c 333f cf55 c23e
00000250: e69b fc3e c954 bc3e fe4c 563d d0ef f8bd
00000260: 5b79 1b3f ada2 0a3f ef33 643e 1a05 0ebe
00000270: edc4 4a3e 2558 cd3d 7b7f 5dbe 1039 9a3d
00000280: 9fc2 ac3b 356e b13e 8884 a03e a6c0 95bd
00000290: c662 2f3f 5526 36be 55c6 0cbe 2ea4 833e
000002a0: 1ab5 1f3f e360 30be bee8 86be bcdf 91bc
000002b0: c74e b83e 8466 1bbd 6d9f 5bbd 0f77 ab3e
000002c0: 625d 1dbe 04ec f8bc 79bf 0d3c 4b31 d03a
000002d0: 4eda 8d3e b833 103e aeba c43d dc7b 4dbb
000002e0: c5c1 1ebe 55ed 9cbd bb9c f6bc ea9d 553d
000002f0: 2631 393d 703e bc3d 30ef e13c 8e3c 03bc
00000300: 80b9 bfb8 d377 e03d 1d26 0b3f 5062 323f
00000310: ba90 19bf 2423 d43e a2b6 b5be 4185 4c3f
00000320: b508 8bbe 78ea d1bc d547 9abe e853 34bd
00000330: 9125 57be 70a8 043c 2eee ac3e 4ac6 b4bd
00000340: 5018 0b3e a4f6 f63e c697 d3bc 869e bf3e
00000350: af3f cbbd 8d23 cdbc 70b7 0d3e 15dc 5c3a
00000360: 45f5 923e e09c da3e 8f26 a8bd ad34 203f
00000370: 68b6 2c3e b652 18bf fcda d53e 5612 9dbe
00000380: b0a4 efb8 d792 10be 2514 4d3f b2f0 f23b
00000390: aed4 3abe 5acc 45bd 746b 243e 579e 3e3e
000003a0: 4a97 8ebe 8099 f63e 471f a63e 3849 313f
000003b0: bc09 bfbd ac3e 32bc a4a5 613e 3389 22be
000003c0: fef0 413c 4d3d 98bd 4b2a 0b3e 7d5a acbc
000003d0: 5fa7 203f 80ac b5bc 97c5 cd3c a4fa 59bc
000003e0: 5282 2dbe 368d ce3e 538d 2fbc 7b67 3bbd
000003f0: ddbd 243e 48b1 803c 27ea e5bc fd85 1c3e
-0.1280816 -0.1703325 0.40643108 -0.00118475 0.086334184 0.26722917 0.022685548 0.0046767876
0.16630413 -0.0383936 0.26145688 -0.08640381 0.4161451 0.33563676 0.3889345 -0.0040718107
-0.12868714 -0.08363639 0.02310405 -0.008465543 0.12500918 -0.1155041 0.109910205 0.042916514
-0.46765548 0.42230004 0.5129119 0.3057554 0.025956092 0.0004146389 -0.05291375 -0.24098168
-0.09282927 -0.57744837 0.06447595 -0.12716119 -0.2538689 -0.18926601 0.086241886 0.20247875
-0.096294746 0.22213499 0.09370778 -0.38749647 -0.08130284 0.0058202865 0.059801653 -0.41370374
-0.005267161 -0.25521582 -0.008236522 0.0007469001 0.18346258 0.1509391 -0.00050029345 0.46587494
0.54157317 0.71401435 0.69951284 0.24140422 0.21045364 0.43526003 0.4970566 -0.28047
0.0038608946 0.17724 0.6367902 -0.013126458 -0.09409492 0.2195288 0.075262815 -0.084660165
-0.13089666 0.24254629 0.19309847 0.44090086 0.12277193 0.21542294 0.18094254 -0.24006972
0.17241235 0.82268655 -0.3254154 -0.25094256 0.40658936 0.39854392 0.15720585 -0.004504067
0.4833529 0.086264625 0.48621476 0.07746478 0.4893182 0.22910619 -0.3922765 0.09108695
-0.035338163 -0.024920585 -0.07028626 0.1183435 0.15438215 0.009186881 0.036919415 -0.033130545
0.05592644 0.037583478 0.12852976 0.07036576 -0.12320563 0.01687138 0.021195468 0.015566941
-0.015502534 -0.0011292254 -0.095003866 0.0010570475 0.10681034 -0.29678634 0.20418493 0.108659625
0.02357366 0.40009022 0.38250628 -0.17285775 -0.1275185 0.6497047 -0.09435353 0.416382
0.14810133 0.18767393 -0.09661357 -0.49151498 0.31445146 0.6330753 0.14035474 -0.07080833
-0.024400003 -0.15680484 0.37516797 0.14408424 0.32748324 0.19075574 -0.30581287 0.31590733
-0.008391019 0.25528422 0.7001488 0.37956092 0.4933769 0.36783436 0.05231952 -0.121551156
0.6073205 0.54154474 0.22285436 -0.13869134 0.19801684 0.10026578 -0.21630661 0.07530415
0.005272224 0.34654394 0.31351113 -0.073121354 0.6851009 -0.1778806 -0.13747533 0.25711197
0.62385714 -0.1722446 -0.26349443 -0.01780688 0.35997602 -0.037939563 -0.053618837 0.33489272
-0.15367654 -0.030385979 0.008651608 0.0015883831 0.27705616 0.14082229 0.09605919 -0.0031354344
-0.15503605 -0.07662455 -0.030104032 0.05215255 0.045212887 0.091915965 0.027579874 -0.008010043
-9.142142e-05 0.10960355 0.5435503 0.6968126 -0.5998646 0.4143306 -0.354909 0.7989083
-0.2715508 -0.025624499 -0.30132928 -0.04402533 -0.21010424 0.008096799 0.33775467 -0.08826883
0.13583493 0.48235047 -0.025829207 0.3742563 -0.09924256 -0.025041366 0.13839507 0.0008425129
0.2870275 0.4269781 -0.082104795 0.62580377 0.16866457 -0.59501207 0.41768634 -0.30678052
-0.000114270835 -0.14118515 0.80108863 0.007413947 -0.18245193 -0.048290588 0.16056615 0.1861509
-0.278498 0.48163986 0.32445738 0.6925235 -0.093280286 -0.0108792 0.22035843 -0.1587265
0.011837242 -0.07433567 0.13590352 -0.021039242 0.6275539 -0.022176981 0.025118632 -0.013304386
-0.16944245 0.4034211 -0.010714847 -0.045752984 0.16088052 0.015709534 -0.028065754 0.15285487

rgcn1.root f4 [1, 16]
00000000: d2aa f6be 8fe6 043e 378e b03e 41ce d2be
00000010: 5679 263f 28bf 2f3f 8ed0 873d acbf 4ebd
00000020: 577b 503f ea3d c43e 9e4c 7dbd 58e5 e03e
00000030: f4c3 5b3e fb49 66be a8a1 4a3f c23e bd3e
-0.481772 0.12978576 0.344835 -0.41172984 0.65028894 0.68651056 0.066315755 -0.05047576
0.814382 0.38328487 -0.061840646 0.43924975 0.21461469 -0.22489159 0.7915292 0.36961943

rgcn1.bias f4 [16]
00000000: 3cb6 0fbe 9179 80bd 0e92 983e 4f96 b6bd
00000010: 7cac a73e 1a92 b93e 3e06 033f 6a9f 1bbe
00000020: a995 9e3e 9924 933e 8d23 a53e 1c1c a83e
00000030: 474f a93d abdb 3bbb ca90 863e d971 e7bd
-0.1403436 -0.06273187 0.2979893 -0.08915388 0.32748783 0.3624428 0.511814 -0.1519753
0.30973557 0.2873886 0.32253686 0.32833946 0.08267074 -0.0028664868 0.2628234 -0.113010116

rgcn2.weight f4 [45, 16, 4]
00000000: 2f75 0c3d 03ff 5bbc 0b7a 5ebc 6a3a 353e
00000010: 7ed9 003e 4889 9abd a88e e93a 6e0f c1be
00000020: c686 f63e a216 1fbc 34a9 1dbe 6a7f 9dbe
00000030: 009a 863a 5f2b 39bd 4506 84bd 836b 39bc
00000040: ae0a ff3e 6d2f 7ebd 80b2 5e3d a59d c83d
00000050: 41b9 8d3e ec09 6ebd a8d6 25bf 6c0f e4be
00000060: 665b 9f3c 1790 d1bc f1eb 56bd 9198 81bc
00000070: d7fa cabd 0d52 2ebd 4487 f9bd 6a38 49be
00000080: 5fea 893d 7b61 cfbe 89e4 18be aa0d 323e
00000090: 7c5a 25bd 536c d6be 04f4 203e 4a1c babe
000000a0: 2965 893e ecf1 1d3e 99fc e0bd fcb9 cebe
000000b0: c1af 123f 2d95 a2bd e666 283e a852 01bf
000000c0: a93c d13c 549e 7fbd e855 06be 38af 0ebc
000000d0: c91f 513e c43d f2bc a2ae 2dbe c3d1 44bd
000000e0: 7fcc 0fbd da89 69bd 7683 dcbe bf12 f1ba
000000f0: 79dd c43e 82d3 22be f23a 9fbd abdc 0bbf
00000100: 443c a3bd 54cd f93d 9a9f 7cbd 333e b63b
00000110: 6b69 81bc 9116 0c3e 8479 57bc d450 c83b
00000120: e613 b2bd 99ec 26bd 5a1d bbbc 0d45 e8bd
00000130: 7a53 99b9 58e2 a4bb c068 cc39 1bfd 783c
00000140: 2fd9 853c 4dff 883d c202 863d 7f7e 76bd
00000150: 280d 213e d0a7 e9bc 885f 60bd 7296 f4bd
00000160: 6fa6 fb3c e82e 31bc fe6c b63a 7f4a 24bd
00000170: 7f88 0a3d 7ecf 223b f57e 2f3d bf99 953c
00000180: f5de c33d 3c50 1dbe 80fe 23be fadd 6dbe
00000190: 5d68 3e3e ac85 edbc c48a 2bbd 8ae1 2dbe
000001a0: c8e1 603c 4202 c4bb 2ad5 a7ba afec 72bc
000001b0: 2b54 f03b 5162 f6bc 4c55 0dbd 6d33 b1bd
000001c0: 31b8 723c 2ad3 3cbd 1a40 b03b b01e babb
000001d0: f8df 883c b910 c2ba b5c0 1fbc 3e3e 5dbc
000001e0: fcc6 2c3e 808a 9fbd 2a61 6dbd 51ba 053e
000001f0: f5a3 04be 280c 1c3e b815 eabc dc8f 46bd
00000200: 8fc4 253c d648 9f3c 1290 2cbc 9376 4c3c
00000210: e508 99be cb83 a33d 7894 013e 78a3 a03e
00000220: 0794 b5be 0d95 883d 8df1 e4be c7ec 15bf
00000230: 4caa 7dbc a547 06bc 628e 7dbd 02f8 e43b
00000240: 7b4a c3bd 3894 17be a017 a73b 66a4 92bd
00000250: 2047 993e 7ead d5be 9970 873e f517 80be
00000260: 684a 39be 5011 67bd 39e8 593e 0b41 29bb
00000270: 6171 dcbd 0f73 3bbe 2f1e 18be 1bab 6a3e
00000280: 9f39 ce3d 34d2 3cbf dbf7 193e 8907 7cbe
00000290: 9b48 8d3e 9b03 0f3e f69a b1be 693d 0bbf
000002a0: 55fb 4d3e b019 27be 300c aa3d 5382 01bf
000002b0: f577 a93e 7ddd 08bf 9b93 5f3e a15c 22bf
000002c0: a240 0bbe 92fa b4bd 0741 2d3e 2bb0 93bd
000002d0: 20d7 d13d af6f 0bbf 3012 62bd c61e b2be
000002e0: ed0f b4be dca7 7ebe 3046 5fbe 143f 07bf
000002f0: 0b19 a43e 3783 2ebe 3802 333e 1609 cabe
00000300: 5da9 483c 1f6a 2ebb 9956 ed3c 0a45 a63b
00000310: 02de 32bd 4355 68be 6d50 ae3e e64f 4f3e
00000320: 7c97 363f 4f6a fa3c 6cb5 19bf f3df 18bf
00000330: 37c2 403e 22f3 72be 46b8 4cbe 7f33 28be
00000340: 720d 893d ff77 a83b 2c6a 3fbb 076f 9dbd
00000350: 95cd 043f 9e20 c83d 9033 0abe dafc e0be
00000360: 1628 293d d4ac 12bd a0d7 f7bd cf4e 64bc
00000370: f5ab 6f3e 7510 98bd ce24 c1bd 62df 9ebe
00000380: 341f 08be 35e4 4f3e 06fd 48bd f428 4ebe
00000390: e1ed af3e 51f4 943d 7eb7 3cbe a84f ddbc
000003a0: d0bb 893c 9080 02bd c853 e53c a286 35ba
000003b0: d062 10be 8df6 143e 9a3d cfbe afcb 973e
000003c0: a513 79bc 517c e9bd 93a9 9abb 16e5 1dbd
000003d0: 91db 05bb 0d67 a6bd a2e2 bfbb ff3f be39
000003e0: 6814 89bd aa18 05bf 5166 433e 9c00 2ebf
000003f0: b219 31be 9079 91be b7c2 2fbe 7744 5c3e
0.034291442 -0.013427499 -0.013578902 0.17698064 0.12582967 -0.075457156 0.0017819004 -0.37707084
0.481497 -0.009709986 -0.15396577 -0.30761272 0.0010269284 -0.045207378 -0.06446508 -0.011317137
0.49812835 -0.062056947 0.05436945 0.09795693 0.276804 -0.05811493 -0.64780664 -0.44543016
0.019452762 -0.025581403 -0.052471105 -0.01581982 -0.09911125 -0.04255872 -0.12184003 -0.19650427
0.06734156 -0.4050406 -0.14930929 0.17388025 -0.040369496 -0.4187952 0.15718085 -0.36349708
0.26834992 0.15424317 -0.10985679 -0.4037627 0.5729943 -0.07938609 0.16445503 -0.5051675
0.02554162 -0.062406853 -0.13118708 -0.008708768 0.20422281 -0.029570468 -0.16961148 -0.048051607
-0.035107132 -0.05701623 -0.43069047 -0.0018392428 0.3845022 -0.15900996 -0.07774915 -0.5463359
-0.07970479 0.12197366 -0.061675645 0.005561614 -0.015797338 0.13680483 -0.01315153 0.006113151
-0.086952016 -0.04075298 -0.022841144 -0.113412954 -0.0002924463 -0.005031865 0.00038987957 0.015197064
0.016338913 0.0668932 0.06543495 -0.06017923 0.15727675 -0.028522402 -0.054778606 -0.11942758
0.03071901 -0.010814406 0.001391798 -0.040110108 0.03382158 0.0024842913 0.042845685 0.018261788
0.0956401 -0.15362638 -0.16015053 -0.23229209 0.18594499 -0.028994404 -0.041880384 -0.16980568
0.013725705 -0.0059817145 -0.0012804617 -0.014826938 0.0073342524 -0.030076178 -0.034505174 -0.08652387
0.0148144225 -0.04609982 0.0053787353 -0.0056799278 0.01670836 -0.0014806009 -0.009750535 -0.013503609
0.16872782 -0.07790089 -0.05795399 0.13059355 -0.1295317 0.15239012 -0.02857481 -0.04847704
0.010117664 0.01944391 -0.010532396 0.012479442 -0.29889598 0.07984122 0.12654293 0.31374717
-0.35464498 0.06669054 -0.4471554 -0.5856442 -0.0154824965 -0.008195792 -0.061903365 0.0069875726
-0.095356904 -0.14802635 0.005099252 -0.07160263 0.29937077 -0.41733927 0.26453093 -0.25018278
-0.1809479 -0.056412995 0.21279992 -0.0025826122 -0.10763813 -0.1830561 -0.14855264 0.22916834
0.10069584 -0.73758245 0.15035956 -0.2461225 0.27594456 0.13966219 -0.34688538 -0.5439058
0.20115407 -0.16318393 0.08303106 -0.50589484 0.33099332 -0.53462964 0.21833651 -0.6342259
-0.13598874 -0.08836855 0.16919337 -0.07211336 0.1024611 -0.5446729 -0.055193126 -0.34789103
-0.351684 -0.24868721 -0.21804118 -0.52830625 0.32050356 -0.17042242 0.17481315 -0.39460057
0.012247411 -0.0026613546 0.028971957 0.005074148 -0.043668754 -0.22688775 0.34045735 0.20245323
0.71324897 0.03056827 -0.6004245 -0.5971672 0.18824087 -0.2372556 -0.1999217 -0.16425894
0.066920176 0.005141258 -0.002920757 -0.076871924 0.51876193 0.09771846 -0.13496232 -0.4394291
0.041297995 -0.035809353 -0.12101674 -0.013934805 0.2340544 -0.07425014 -0.09430848 -0.31029803
-0.13293153 0.20301898 -0.049069427 -0.2013281 0.34361175 0.07273162 -0.18429372 -0.027015522
0.016813189 -0.031860888 0.027994052 -0.0006924664 -0.14100194 0.14547177 -0.40476686 0.29647586
-0.0152024375 -0.114006646 -0.004719922 -0.03854855 -0.0020425061 -0.08125124 -0.005855874 0.00036287305
-0.06693345 -0.5199076 0.19082 -0.6796968 -0.17294958 -0.28413057 -0.17164122 0.21510492

rgcn2.root f4 [16, 4]
00000000: 35d2 4d3c 891e a2bc 22c1 363e 3c98 0fbe
00000010: ae22 97be 19d7 33bf 8c13 d7be 0edd 353e
00000020: 2d8b 133f abbe d8be 00a4 c0be df27 72be
00000030: 9e37 9fbe 95b3 5e3e 1d65 a7bb dafe b1be
00000040: 1d6f 273f 2096 06bf aaf8 b2be dea4 2ebf
00000050: 41f0 bbbd 7a4a c4be 92a5 bebe c5ff dfbe
00000060: ccc1 2ebc 1ec7 cbbe ef54 32bf a6f6 38bf
00000070: 633d 69be 9c3d 54bd b0c1 ae3e 7455 123e
00000080: 0b8c 363e 48ba 43bf ba61 24bf e7c6 a5bd
00000090: 9fb7 473f b988 debe 5754 613d cb61 30be
000000a0: 2655 963e b438 19bf 31ec 1abf b2a0 01bf
000000b0: e372 503e eb18 13bf d7c4 18bf d0e1 0abf
000000c0: 6ee4 783e b32c 163e b212 6abe 5ed8 50be
000000d0: 5a4b 293d c92e 343e 2e27 cdbe 4513 c0be
000000e0: a109 563e a63a 47be 028d 95be e8c2 2dbe
000000f0: 7ee8 9dbe 49f6 2dbf e3e0 08bf 503e 37bb
0.012562324 -0.01978995 0.17847112 -0.14022917 -0.29518646 -0.7025009 -0.420071 0.17760107
0.5763424 -0.42332968 -0.37625122 -0.23648022 -0.3109712 0.21748193 -0.005108489 -0.3476475
0.6540392 -0.5257282 -0.3495534 -0.6822032 -0.09176684 -0.3833807 -0.37235695 -0.43749824
-0.010666322 -0.39800352 -0.6966085 -0.72251356 -0.22777323 -0.051816568 0.34132147 0.1429041
0.1782686 -0.7645612 -0.6421162 -0.08094578 0.7801456 -0.43463686 0.055012073 -0.17224805
0.29361838 -0.5985215 -0.6051665 -0.50635827 0.20356326 -0.57459897 -0.59675354 -0.5425081
0.24305889 0.14665489 -0.22858694 -0.20395038 0.041331626 0.17595972 -0.40068954 -0.375147
0.2090211 -0.19455966 -0.29209143 -0.16968882 -0.3084144 -0.67953926 -0.5346815 -0.0027960725

rgcn2.bias f4 [4]
00000000: 0053 7c3e 82a0 73be b6c4 6bbe 0398 84be
0.24641037 -0.23791698 -0.23024258 -0.25897226
