learned_weights.pth (torch, 205196 bytes, 3 tensors)

weight f4 [16948, 1, 3]
0	0x3e2036c3	0.1564589
1	0x3e03068b	0.12795465
2	0x3d03f657	0.03221735
3	0x3eb6b2d8	0.35683322
4	0x3dadeaed	0.08492074
5	0xbefc2060	-0.4924345
6	0x3e5c063f	0.21486758
7	0xbf44e56b	-0.76912564
8	0xbf6f1983	-0.933983
9	0x3e436c61	0.19084312
10	0xbb46d82e	-0.0030341255
11	0xbe8277b9	-0.25481966
12	0x3c515472	0.012776481
13	0xbc2b546a	-0.010457138
14	0xbd964acd	-0.07338486
15	0x3d2a2728	0.04154125
16	0xbbf23dc9	-0.0073926193
17	0xbc9ebd43	-0.019377356
18	0x3d10e260	0.035372138
19	0xbce23b8f	-0.02761629
20	0xbd455a5a	-0.04818187
21	0x3dae8d67	0.08523064
22	0xbeb5855c	-0.35453308
23	0xbf9ecf8d	-1.240709
24	0x3d9f2de2	0.07772423
25	0xbe9059df	-0.28193566
26	0xbf001c22	-0.5004293
27	0x3a0bba8a	0.00053302257
28	0xbb335399	-0.002736306
29	0x39170feb	0.00014406412
30	0x3d128836	0.035774432
31	0xbce411aa	-0.027840454
32	0xbd4ea745	-0.05045249
33	0xbc0855b2	-0.008321213
34	0x39566364	0.00020445656
35	0x3a1914a8	0.0005839565
36	0x3e89d17c	0.26917636
37	0xbe6d57da	-0.23178044
38	0xbf5eef66	-0.87084043
39	0xbe9b898e	-0.30378383
40	0x3bac4d2a	0.005258222
41	0xbd713e5b	-0.058897357
42	0xba3c1cdf	-0.0007175933
43	0xba0668a3	-0.00051272864
44	0x3986a37c	0.00025680277
45	0xba0f5627	-0.0005467855
46	0x3a0cfdd3	0.0005378399
47	0x38348e18	4.304768e-05
48	0x3e50fa58	0.20407999
49	0xbe413a96	-0.18870005
50	0xbf3be04c	-0.73389125
51	0xbd2fa30f	-0.042880114
52	0xbe30edf3	-0.1727827
53	0xbf1effdd	-0.62109166
54	0x3b7d4d92	0.0038650972
55	0x39b0afdd	0.00033700364
56	0xb96792de	-0.00022084589
57	0x3e8aa6ea	0.2708047
58	0xbe0de89a	-0.13858262
59	0x3df22a2d	0.11824451
60	0xba5e8f0a	-0.00084899424
61	0xba071840	-0.0005153455
62	0x393cb50e	0.00017996525
63	0xba70965a	-0.00091776776
64	0xb90addca	-0.00013243328
65	0x3a0becf6	0.0005337739
66	0xbc0b407a	-0.008499259
67	0xbae76edc	-0.001765694
68	0x3c931d89	0.01795842
69	0x3c968f1e	0.01837879
70	0xbc4db327	-0.01255492
71	0xbdb26905	-0.08711437
72	0xbe267443	-0.16255288
73	0x3da13474	0.07871333
74	0xbe87fbad	-0.265592
75	0xbb2a267f	-0.0025962887
76	0x3a10b2ff	0.00055198366
77	0x39fc7c23	0.00048157675
78	0x3d0f76c5	0.035025377
79	0xbce82bec	-0.028341256
80	0xbd8088f9	-0.062761255
81	0x39f4ac6c	0.0004666777
82	0xba601ca4	-0.00085491897
83	0xba0f2584	-0.00054606074
84	0xbcefcebd	-0.029273385
85	0xbce283d0	-0.027650744
86	0x3cad6b3c	0.021169297
87	0x3a261ac4	0.0006336386
88	0x3a15cd24	0.0005714467
89	0xb9985bcd	-0.00029060096
90	0x39b81238	0.0003510879
91	0x3a0bf7b7	0.00053393416
92	0xba188ed5	-0.00058196235
93	0x3ca045d4	0.019564547
94	0xba071fbf	-0.0005154572
95	0xbc9494b8	-0.01813732
96	0x399d891e	0.00030047534
97	0x3a16e30d	0.0005755879
98	0x39c42188	0.00037409016
99	0x3e310003	0.1728516
100	0xbdd40c46	-0.103539035
101	0xbe8f48b7	-0.27985165
102	0x3d8f33a4	0.069922715
103	0xbdbd52b1	-0.09244288
104	0x3c7dedab	0.015498559
105	0x3e52adf1	0.20574166
106	0xbe45a69a	-0.19301835
107	0xbe9afc7c	-0.30270755
108	0xb9ab17e4	-0.00032633462
109	0x39d09672	0.00039784942
110	0xba7f331e	-0.0009735095
111	0x3e0f92b7	0.14020811
112	0xbe1f20f8	-0.1553992
113	0xbe930827	-0.28717157
114	0xba05224b	-0.00050786574
115	0x3a17690e	0.0005775847
116	0x398e9ece	0.0002720267
117	0xba06db46	-0.00051443686
118	0xbb42089a	-0.0029607178
119	0x3be74984	0.0070583243
120	0x3a0969e5	0.0005241915
121	0xb98a992f	-0.00026435542
122	0xb9b5838e	-0.00034621026
123	0xb7865c20	-1.6016944e-05
124	0xba146aca	-0.0005661665
125	0x3a052ac0	0.00050799176
126	0xb9a53886	-0.00031513366
127	0xba073924	-0.0005158356
128	0x3a0c4fdb	0.00053524756
129	0xbc577e0b	-0.01315261
130	0xbbe82631	-0.007084631
131	0x3d8c39de	0.06846975
132	0x3a07c27c	0.0005178822
133	0xbb016e61	-0.001974963
134	0x3a0c3c41	0.00053495547
135	0x3b4b2b95	0.0031001319
136	0x3a065048	0.0005123657
137	0x39a57e14	0.00031565188
138	0xba41637b	-0.00073771895
139	0x39dd38ea	0.0004219481
140	0xb9e24130	-0.00043154648
141	0xb9eb77d1	-0.00044911963
142	0xba06130a	-0.00051145314
143	0xba0c5978	-0.0005353908
144	0xb9f265e6	-0.00046233757
145	0xba0cd150	-0.0005371766
146	0x3c543fb0	0.012954637
147	0xba145ab6	-0.0005659269
148	0xba0ce1ac	-0.0005374204
149	0x3a5eef0b	0.0008504248
150	0xbba9c583	-0.005181016
151	0x3a0f9b19	0.00054781284
152	0x3a0fba0d	0.0005482741
153	0xba7705b8	-0.00094231544
154	0x39b36841	0.00034219216
155	0xba18e15e	-0.0005831922
156	0xba0c716a	-0.0005357476
157	0xbb3de462	-0.0028975238
158	0xba068da8	-0.0005132803
159	0xbb421ce0	-0.0029619262
160	0x3a162fa7	0.00057291467
161	0xb981ca13	-0.00024755354
162	0x3a0b3760	0.0005310681
163	0xbb83a092	-0.004016944
164	0xba14e8ec	-0.000568046
165	0xb8c44c9c	-9.360278e-05
166	0x3c8144a8	0.015779808
167	0x3ca01aa8	0.01954396
168	0x375fad60	1.3332203e-05
169	0xbb31577e	-0.0027060206
170	0xba4fbea6	-0.0007924832
171	0xba0abf8c	-0.0005292825
172	0xba0c42e5	-0.0005350544
173	0xb946a748	-0.00018945069
174	0x3a0c5931	0.0005353867
175	0xbc419d42	-0.011817278
176	0x39ec22ef	0.00045039455
177	0x3c9fefd2	0.019523535
178	0xba563968	-0.00081720063
179	0x3bafb7a8	0.0053624697
180	0x39ba5a09	0.00035543766
181	0xb84f5098	-4.9427705e-05
182	0x3c3194b0	0.0108386725
183	0xbc9a57ac	-0.018840633
184	0x3a7a8f25	0.00095580734
185	0xbbf359c0	-0.0074264705
186	0xbb851a91	-0.004062005
187	0xbc41cdcb	-0.01182885
188	0x3a12a88a	0.0005594572
189	0xb880d718	-6.14358e-05
190	0x3a07013c	0.0005150025
191	0x3a131d39	0.00056119595
192	0x39ce31c8	0.00039328472
193	0xb9ed55a4	-0.0004526797
194	0xb90d8ce4	-0.00013499294
195	0xba11f162	-0.000556728
196	0xba30d7c1	-0.0006746017
197	0xba7e0898	-0.00096906116
198	0x3a0e5cf6	0.00054307224
199	0xbc9fb034	-0.0194932
200	0x3bc60ad8	0.006043773
201	0xb7c8cf80	-2.3938483e-05
202	0xba42fbb2	-0.0007438018
203	0x3a5af52a	0.00083525723
204	0x3a0872fb	0.00052051217
205	0x373c3280	1.1217431e-05
206	0x3acb1796	0.00154947
207	0x3a09571f	0.00052391173
208	0x3c9d8141	0.019226672
209	0x3a4d0670	0.00078210887
210	0x3a15104c	0.00056863273
211	0x3be375d1	0.006941535
212	0x39b51bd3	0.0003454374
213	0xbbe0e1e5	-0.006862866
214	0xbc9e193f	-0.019299148
215	0xb969ab98	-0.00022284535
216	0x3829fb58	4.0526822e-05
217	0xba7fd299	-0.00097588595
218	0xba05203d	-0.0005078351
219	0x3c0b3528	0.00849656
220	0x3a137534	0.00056250696
221	0xbc9b8488	-0.018984094
222	0x39455d98	0.0001882225
223	0xba8e3fd8	-0.0010852767
224	0xb9aed017	-0.00033342905
225	0xb9c3d11f	-0.00037349106
226	0x3a0f6d59	0.0005471311
227	0x3c063bcd	0.008192969
228	0xbc972853	-0.018451845
229	0x39ecf55a	0.0004519623
230	0x393ce2f6	0.00018013627
231	0xb9a0c19f	-0.00030661837
232	0x3c8462f6	0.01616047
233	0xb988fba8	-0.0002612744
234	0xba12a58a	-0.0005594125
235	0x3a1252b5	0.00055817823
236	0xb9e38dbc	-0.00043402414
237	0xba17d174	-0.0005791404
238	0x3a7da4ea	0.0009675758
239	0x3a072238	0.00051549403
240	0xba071b85	-0.0005153942
241	0xbab405a6	-0.0013734594
242	0x3c0b30c7	0.008495516
243	0xba16b800	-0.0005749464
244	0x3a0ddf59	0.00054120045
245	0xb9ad4635	-0.0003304944
246	0xbbf89fa6	-0.007587391
247	0xba06fe24	-0.0005149564
248	0x3a5bd7d6	0.0008386349
249	0xbbfd6756	-0.007733266
250	0x3a4da2ea	0.00078444055
251	0x3b41234f	0.0029470508
252	0xba056e20	-0.0005089957
253	0xb9e66066	-0.0004394084
254	0xb8936aa8	-7.0293725e-05
255	0xba1ed0e3	-0.0006058348

root f4 [1, 3]
0	0x3f956d1f	1.1673926
1	0xbff6cc31	-1.9281064
2	0xbed21910	-0.41034746

bias f4 [3]
0	0x3f8b328e	1.0874803
1	0xbf90a1a7	-1.1299332
2	0xbfa107d9	-1.258052
