learned_weights.pth (torch, 17560 bytes, 6 tensors)

rgcn1.weight f4 [45, 1, 16]
0	0xbd20cc07	-0.039257076
1	0x3e9c88fc	0.3057326
2	0xbde681c2	-0.11255218
3	0x3c6f0f92	0.014591115
4	0x3d155b62	0.036464103
5	0x3c55163e	0.013005791
6	0xbd318e6c	-0.043348715
7	0xbd6c33bc	-0.057666525
8	0xbdffc8c7	-0.12489467
9	0x3dbadd05	0.091241874
10	0x3e5cece9	0.21574749
11	0x3f1c9697	0.6116728
12	0xbe58ee18	-0.21184576
13	0x3e8031f0	0.250381
14	0x3ed08468	0.40726018
15	0x3e1838e1	0.14865448
16	0x3d8c805b	0.06860419
17	0xbdd7507a	-0.105133966
18	0x3d507d70	0.050900877
19	0xba606138	-0.00085594086
20	0x3ec359e7	0.38154528
21	0xbdbf1ee4	-0.09332064
22	0x3d5cf656	0.05394586
23	0x3e340745	0.17580898
24	0xbdda14e0	-0.10648513
25	0x3ea82d93	0.3284727
26	0xbd931f49	-0.071837015
27	0xbdb523a0	-0.088446856
28	0x3e4bd9b9	0.19907273
29	0xbd1702cc	-0.0368679
30	0x3e3de4c9	0.18544306
31	0x3d59bfae	0.053161316
32	0x3de30d26	0.11086492
33	0xbc33b2d3	-0.010967928
34	0xbcb539f7	-0.022122366
35	0x3f01b165	0.5066131
36	0xbd0f9b58	-0.035060257
37	0x3ed012a0	0.4063921
38	0x3e02783e	0.12741181
39	0x3edcb755	0.4310862
40	0x3de2c133	0.11072006
41	0x3ef36f8c	0.4754604
42	0x3be4f968	0.0069877394
43	0xbe381b44	-0.17979151
44	0xbbd7d54c	-0.0065867063
45	0x3ea763b2	0.3269325
46	0xbda097f1	-0.078414805
47	0x3ce4fed9	0.027953552
48	0x3e6bced6	0.2302812
49	0x3c008146	0.007843321
50	0x3f309ea7	0.68992084
51	0xbd7d376b	-0.06182043
52	0x3e9b2aa8	0.30305982
53	0x3e744e2a	0.23857942
54	0x3f0cb767	0.5496735
55	0x3e50e5b2	0.20400122
56	0xbea37482	-0.31924826
57	0x3e3282b8	0.17432678
58	0xbd5d6a07	-0.054056194
59	0x3cce19ee	0.025158849
60	0x3f0f7f05	0.5605319
61	0x3eb9fcc9	0.36325672
62	0x3cf05e38	0.029341802
63	0x3e74d9a2	0.23911145
64	0x3dcc474f	0.099745385
65	0x3bbbb709	0.0057286066
66	0x3c562dfe	0.013072489
67	0x3eb4a2de	0.35280508
68	0x3d34bbd4	0.04412444
69	0x3e7808fd	0.24222179
70	0x3e182ed3	0.14861612
71	0x3e9d1494	0.30679762
72	0x3d4b96ba	0.04970429
73	0x3ed06c6e	0.40707725
74	0x3c0b5662	0.008504482
75	0xbcf3c758	-0.02975814
76	0xbe0aaf8b	-0.13543527
77	0x3e289123	0.16461615
78	0xbdf0d3e0	-0.11759162
79	0x3f0d757e	0.55257404
80	0x3bdc1996	0.0067169173
81	0x3b656e2a	0.003500829
82	0xbc344a18	-0.011003993
83	0xba60d11f	-0.00085760833
84	0x3e3389cd	0.17533036
85	0x3e162e51	0.14666106
86	0x3ebf1a07	0.37324545
87	0xbe12d75b	-0.14339964
88	0xbe119525	-0.1421705
89	0x3eb3b301	0.35097507
90	0xbd9290af	-0.071565025
91	0xbcba1c83	-0.022718674
92	0xbc469cc3	-0.012122336
93	0xbcb6b3af	-0.022302477
94	0x3e779679	0.24178495
95	0xbde3ccb6	-0.1112303
96	0x3d596e80	0.053083897
97	0xbb3674b0	-0.0027840547
98	0x3d2ed654	0.042684868
99	0x3bc7eead	0.0061014504
100	0x3ce77e59	0.02825849
101	0x3ddce799	0.10786361
102	0x3d705fb6	0.058685027
103	0x3c467e56	0.012115082
104	0x3db15007	0.08657842
105	0x3caa7931	0.020809742
106	0xbabed52c	-0.001455938
107	0x3e004f66	0.12530288
108	0x3cbbbee8	0.02291818
109	0x3d8b6f17	0.06808298
110	0xbd874ec6	-0.06606822
111	0x3e4cd301	0.20002367
112	0x3dbf19a6	0.09331064
113	0x3c84e70a	0.01622345
114	0xbe58a200	-0.21155548
115	0xbca4905e	-0.02008837
116	0x3e7782f8	0.24171054
117	0x3d8b232f	0.0679382
118	0x3d4f4dc9	0.05061129
119	0xbd89e0c4	-0.06732324
120	0x3e8c69ba	0.27424413
121	0x3f23210b	0.63722295
122	0xbd824c22	-0.063621774
123	0x3dc3079e	0.09522937
124	0x3dbbad18	0.091638744
125	0xbe3d4991	-0.18485095
126	0x3e9502c8	0.29103684
127	0x3e0f3375	0.13984473
128	0x3c4f283d	0.012643871
129	0x3bbaafae	0.005697212
130	0x3ead2874	0.33819926
131	0xbb9733f6	-0.0046143485
132	0x3d060537	0.032719817
133	0x3ecf8190	0.40528536
134	0x3f167b3f	0.5878181
135	0x3bd06974	0.0063602272
136	0x3f05c0fd	0.522476
137	0xbe87d68d	-0.26530877
138	0x3c45d440	0.01207453
139	0x3d110126	0.035401486
140	0xbd404117	-0.046937075
141	0x3f34583c	0.70447135
142	0x3ed61545	0.41813102
143	0x3e75fd86	0.24022493
144	0xbbf388ca	-0.007432078
145	0x3a9a4cb0	0.0011772122
146	0x3f323490	0.69611454
147	0x3ca17881	0.019710781
148	0x3e58eb19	0.21183433
149	0x3f20b892	0.6278163
150	0x3f1828d2	0.59437287
151	0xbd6e9d39	-0.058255408
152	0xbe067e39	-0.13134088
153	0x3e325066	0.17413482
154	0x3e8fb908	0.28070855
155	0xbd3a5915	-0.04549511
156	0xbd6ec457	-0.058292713
157	0xbe5e5d75	-0.21715339
158	0x3d89c95a	0.06727858
159	0xbd8ad271	-0.0677842
160	0xbe40d3b1	-0.18830754
161	0x3f3478c3	0.7049677
162	0xbd597f6d	-0.05310004
163	0x3ca04bb8	0.019567356
164	0xbe44c0ac	-0.19214123
165	0x3e038336	0.12843022
166	0x3dff9903	0.124803565
167	0x3ebb32e0	0.36562252
168	0xbe0cfb74	-0.13767797
169	0xbe9e221e	-0.30885404
170	0xbbb885ea	-0.005631198
171	0xbf23519e	-0.6379641
172	0xbea84d7e	-0.32871622
173	0x3ef88e41	0.4854603
174	0x3f22a1a3	0.6352789
175	0x3eabe2a8	0.33571362
176	0x3db0ebb7	0.08638709
177	0x3bd7f8ef	0.0065909545
178	0x3d87282e	0.065994605
179	0x3be112be	0.0068686893
180	0x3ca9d5ca	0.020731825
181	0xbd81aee5	-0.063321866
182	0x3e4261ba	0.18982592
183	0x3e92fd08	0.28708673
184	0x3d68d13f	0.056840178
185	0x3d004a9d	0.031321157
186	0x3e0d36a2	0.13790372
187	0x3bf5946e	0.007494501
188	0x3e15af78	0.14617717
189	0x3e2a661c	0.16640514
190	0x3e384fb5	0.17999156
191	0xbe0d0ce3	-0.13774447
192	0xbdf00794	-0.117201954
193	0xbcdcff23	-0.026977127
194	0xbd1fd8f4	-0.039025262
195	0x3f2a1fb4	0.66454625
196	0xbd1b4a2d	-0.037912536
197	0xbca88c13	-0.020574605
198	0xbeca7c35	-0.39547887
199	0xbf16dece	-0.5893372
200	0xbeaab108	-0.3333819
201	0x3ec49543	0.38395128
202	0xbc33179e	-0.010930924
203	0x3e8b377d	0.27190772
204	0xbda46532	-0.08027114
205	0x3efabffd	0.489746
206	0xbea455b2	-0.3209663
207	0x3dd0cb56	0.10195033
208	0xbd4ddd93	-0.050260138
209	0xbd4908d6	-0.049080692
210	0xbc1c9c42	-0.009558739
211	0xbe0406cc	-0.12893218
212	0xbe3c8a5e	-0.18412158
213	0x3f20a508	0.6275182
214	0x3d61e5db	0.055150848
215	0x3d86bcc3	0.06578972
216	0x3f062461	0.5239926
217	0x3f03f3bd	0.5154379
218	0xbe06cba6	-0.13163623
219	0xbd319662	-0.043356307
220	0xbd1b1406	-0.037860893
221	0x3ef89f54	0.48559058
222	0xbdf9efff	-0.12203979
223	0x3ecf627e	0.4050483
224	0x3da197b1	0.07890261
225	0x3b2d72a3	0.0026466034
226	0x3f50be2f	0.815402
227	0x3c3b86fa	0.011445755
228	0x3f3ad4be	0.7298087
229	0x3f0ef0cd	0.5583618
230	0x3efb65db	0.49101147
231	0xbd4219f7	-0.047388043
232	0x3eb3533b	0.35024437
233	0x3e04b5e9	0.12960018
234	0xbe11cb28	-0.14237654
235	0xbd8224cd	-0.063546754
236	0x3ead5f60	0.33861828
237	0x3f4e5c57	0.8060965
238	0xbda87ad3	-0.08226552
239	0xbe1d10e8	-0.1533848
240	0xbd8632e8	-0.06552678
241	0xbd68a87c	-0.056801304
242	0x3c8a3af0	0.016873807
243	0xbb185f4c	-0.002325016
244	0x3f028071	0.50977236
245	0xbe6ccc98	-0.23124921
246	0x3e77a7ec	0.24185151
247	0x3ed7c18e	0.42139858
248	0x3d9fc65e	0.078015074
249	0xbd62d258	-0.05537638
250	0xbd04296c	-0.032266065
251	0xbc64e2aa	-0.013970057
252	0x3da59527	0.08085089
253	0x3e1990e3	0.14996676
254	0x3f38e25c	0.72220397
255	0xbdf4b6bc	-0.11948916

rgcn1.root f4 [1, 16]
0	0xbe16d225	-0.14728601
1	0xbeaee8c1	-0.34161952
2	0xbe6eb780	-0.23312187
3	0xbe327823	-0.17428641
4	0xbb1ec78b	-0.0024227824
5	0x3f3caa4f	0.7369737
6	0x3e7cc129	0.2468306
7	0x3f0fce7b	0.5617444
8	0x3f051202	0.519806
9	0x3f2c338a	0.6726614
10	0xbec0de78	-0.3766973
11	0x3f0c70f0	0.5485983
12	0x3e6c2095	0.23059304
13	0x3f0e3924	0.5555594
14	0x3e26c656	0.16286597
15	0x3f199e84	0.600075

rgcn1.bias f4 [16]
0	0x3ec81f94	0.39086592
1	0xbd7880a7	-0.060669567
2	0x3e93d9df	0.2887716
3	0x3d48ef6f	0.049056467
4	0x3e2550d6	0.16144118
5	0x3e9a1374	0.30092967
6	0x3eacf22d	0.33778515
7	0x3e8edaec	0.279014
8	0x3e4ac5ec	0.19802064
9	0x3ea95f7e	0.33080667
10	0xbe1c1763	-0.15243296
11	0x3e92dd84	0.28684628
12	0x3d8ce0d2	0.068788186
13	0x3eadfb6b	0.3398088
14	0x3eab37f4	0.33441126
15	0x3e9aac53	0.30209598

rgcn2.weight f4 [45, 16, 4]
0	0x3de83976	0.11339085
1	0xbd09b801	-0.033622745
2	0x3dd53440	0.104103565
3	0xbcb5fd44	-0.022215493
4	0xbb898c82	-0.004197658
5	0xba727dea	-0.000925033
6	0xbabaab0b	-0.0014241649
7	0xbd3d6d8c	-0.04624705
8	0x3e8a118c	0.26966512
9	0x3c0f171e	0.008733539
10	0x3dbc660e	0.09199153
11	0xbdfb2436	-0.12262766
12	0x3d1b9ed2	0.03799326
13	0xbbe9bc44	-0.0071330387
14	0x3be866e8	0.0070923455
15	0xbbe5e374	-0.00701564
16	0x3e8a84b5	0.27054372
17	0xbe3e2f5b	-0.18572752
18	0xbd8d38b9	-0.068955846
19	0xbec32423	-0.38113508
20	0x3f08b02f	0.53393835
21	0x3dcb4697	0.09925573
22	0xbeb3996e	-0.35077995
23	0x3ce475f7	0.027888281
24	0x3ecfdcee	0.40598243
25	0x3dda646f	0.106636874
26	0xbc92a986	-0.0179031
27	0xbe1eff0c	-0.1552698
28	0xbd9fe4ff	-0.078073494
29	0xbd5467b0	-0.051856697
30	0x3d38f798	0.045158
31	0xbc69f428	-0.014279403
32	0xbe37d356	-0.17951712
33	0x3baa15e6	0.005190599
34	0x3bd5e4b1	0.0065275063
35	0x3e2be43e	0.16786286
36	0xbceca569	-0.028887467
37	0xbee5f467	-0.44913027
38	0xbf13c309	-0.57719475
39	0xbec3b75a	-0.38225824
40	0x39d8b708	0.000413351
41	0xbb092ff1	-0.0020933116
42	0xbb99926a	-0.0046866434
43	0x3a0be304	0.0005336257
44	0x3daf38d7	0.08555763
45	0xbc86a769	-0.01643725
46	0x3ddee869	0.108841725
47	0xbcd0eb6c	-0.025502883
48	0x3ef548e9	0.4790719
49	0xbe210d08	-0.15727627
50	0xbcf98cd1	-0.030462654
51	0xbe896c7b	-0.26840577
52	0xbe5cabbb	-0.21549885
53	0xbeedf816	-0.46478337
54	0xbed06bf0	-0.4070735
55	0xbeb78c33	-0.3584915
56	0x3eae8762	0.34087664
57	0xbe0e55d1	-0.13899924
58	0xbdc803b8	-0.09766334
59	0xbe33d914	-0.17563277
60	0x3de4b778	0.111678064
61	0xbe6761bf	-0.22595881
62	0xbeaf506c	-0.34241045
63	0xbe5eb797	-0.21749721
64	0x3c553182	0.013012292
65	0x3df24b1c	0.11830732
66	0x3ab3f153	0.0013728536
67	0xbbd6e758	-0.00655834
68	0xbc8030a5	-0.015648196
69	0xbc0d7a4b	-0.008635114
70	0x3ca15146	0.019692075
71	0x3c291b29	0.010321417
72	0x3c1ba001	0.009498597
73	0xbb81a3c7	-0.0039562914
74	0xbd23a582	-0.039952762
75	0xbae5faaf	-0.0017546023
76	0x3a2c984c	0.00065839733
77	0x3baecaaa	0.005334218
78	0x3bf354d2	0.007425883
79	0xbc3295b6	-0.010899952
80	0xbd8a8c07	-0.06764989
81	0x3d1b88fb	0.03797243
82	0x3e077ef5	0.13232024
83	0x3e0d8d62	0.13823465
84	0x3d82418f	0.063601606
85	0xbd905388	-0.07047182
86	0xbd13144f	-0.03590804
87	0xbdd2a4ff	-0.10285377
88	0x3c8c3ced	0.017118895
89	0xbb68a8e1	-0.003550105
90	0xbceaef7f	-0.028678654
91	0xbdbdb2bb	-0.09262606
92	0x3c109bf5	0.008826246
93	0xbd825f75	-0.06365863
94	0xbd7da997	-0.06192931
95	0xbb8cfea8	-0.0043028183
96	0x3d0fbd4a	0.03509263
97	0xba5b2093	-0.0008359041
98	0xbd697c28	-0.05700317
99	0xbc6f0b5e	-0.0145901125
100	0x3e0ecc5a	0.13945141
101	0x3d4ddc7b	0.050259095
102	0xbe89d496	-0.26920003
103	0xbe10dd10	-0.14146829
104	0xbad722e6	-0.0016413599
105	0xbc763d2f	-0.015029236
106	0x3b11710f	0.0022192632
107	0xbc8d117a	-0.017220248
108	0x3db4452c	0.08802256
109	0xbd9fc0d2	-0.078004494
110	0xbd832b96	-0.06404798
111	0xbc92f611	-0.0179396
112	0xbd8bca1b	-0.06825658
113	0xba84b447	-0.0010124528
114	0xbd2c420b	-0.04205517
115	0xbc9df775	-0.019283036
116	0xbd3403d5	-0.043948967
117	0xbd0bda66	-0.034143828
118	0xbc9e756d	-0.019343102
119	0xbd3c4228	-0.04596153
120	0x3c4c9d3d	0.01248866
121	0xbc882cf8	-0.016623005
122	0xbccebd97	-0.025236888
123	0xbcaf08d6	-0.021366518
124	0x3d5e64cc	0.054295346
125	0x3aa09f45	0.0012254497
126	0x3e02d6de	0.12777278
127	0xbe13bc3a	-0.14427271
128	0xbe664665	-0.22487791
129	0xbd002693	-0.031286787
130	0x3dfed252	0.12442459
131	0xbd86cb4f	-0.06581747
132	0xbc29a96f	-0.0103553375
133	0xbc9a4c24	-0.018835135
134	0x3cc4c5bb	0.024020066
135	0xbb7612f5	-0.003754792
136	0xbc690423	-0.014222178
137	0xbdf524f9	-0.119699426
138	0x3e84d318	0.25942302
139	0x3ddc49b4	0.10756245
140	0x3cc71e2e	0.024306383
141	0x3ded1bab	0.11577543
142	0x3c056c0d	0.008143437
143	0xbc25a2aa	-0.010109583
144	0xbed9d715	-0.42546907
145	0x3e0a6c8f	0.13517974
146	0x3e7a9009	0.24469008
147	0xbf289c14	-0.65863156
148	0xbe47701e	-0.19476363
149	0xbe9c3357	-0.3050792
150	0x3e8c459b	0.27396855
151	0xbeef5f9e	-0.46752638
152	0x3da11950	0.07866156
153	0xbd4ace5a	-0.0495132
154	0x3e5dec8e	0.2167227
155	0xbe2ea385	-0.17054565
156	0xbe9f0285	-0.3105661
157	0xbeade3f0	-0.33962965
158	0xbdd073bb	-0.10178324
159	0x3d3ccb79	0.046092484
160	0x3e11b32f	0.1422851
161	0xbeab90ce	-0.33508915
162	0x3da15831	0.07878149
163	0x3d10a4d9	0.03531346
164	0x3eb60407	0.35549948
165	0xbf110a57	-0.566564
166	0xbef772f1	-0.4832988
167	0xbec16d08	-0.37778497
168	0xbc9e8dd3	-0.019354736
169	0x3d6a6a22	0.057230122
170	0x3bf289ac	0.0074016657
171	0x3b9d01af	0.0047914605
172	0xbd15d752	-0.0365823
173	0xbca87c67	-0.020567132
174	0x3da616e1	0.081098326
175	0xbe547ca4	-0.20750672
176	0x3dde1cdb	0.108453475
177	0x3d223521	0.03960145
178	0x3eb6430e	0.35598034
179	0xbe6e3827	-0.23263608
180	0x3e950800	0.29107666
181	0xbd1f6a5d	-0.038919795
182	0x3eb9905a	0.36242944
183	0xbebea6d4	-0.37236655
184	0x3d805b48	0.062674105
185	0xbed8ac5c	-0.42319
186	0xbdfac9a5	-0.12245492
187	0xbf19baba	-0.6005055
188	0xbf06880a	-0.5255133
189	0xbf15e4b0	-0.58552074
190	0xbebec99d	-0.37263194
191	0xbe5fbe24	-0.21849877
192	0xbcf3f3e8	-0.02977939
193	0xbc93cb63	-0.018041318
194	0xbc856bf3	-0.016286826
195	0xbb3987f0	-0.0028309785
196	0x3c9af857	0.018917246
197	0x3b641750	0.0034803934
198	0x3ca541ac	0.020172916
199	0x3bfc6ceb	0.0077034137
200	0x3cba0a34	0.022709943
201	0x3bb154b0	0.005411707
202	0xbaede0dc	-0.0018148678
203	0x3c810f1d	0.015754277
204	0x3eb8abe9	0.36068657
205	0x3e0595bf	0.13045405
206	0xbe47d99e	-0.19516608
207	0xbe8333a2	-0.2562533
208	0xbc374ca8	-0.01118771
209	0x3b3495dd	0.0027555146
210	0x3c33b4cd	0.010968399
211	0x3d949930	0.07255781
212	0x3b52f46b	0.0032189141
213	0x3e09883a	0.13430873
214	0xbe904ee0	-0.28185177
215	0xbec70b6c	-0.38875902
216	0xbc0ba492	-0.008523123
217	0xbceac2f9	-0.028657423
218	0x3df56cb7	0.11983626
219	0xbb074d42	-0.0020645414
220	0x3f0b7713	0.5447857
221	0xbe5c3087	-0.21502887
222	0xbe896c0e	-0.26840252
223	0x3e883cba	0.2660883
224	0x3f1b1ad9	0.6058784
225	0xbd8f902a	-0.07009919
226	0x3e9144e0	0.2837286
227	0xbdc18f5d	-0.094511725
228	0x3ec44b4c	0.38338697
229	0x3e41671d	0.18886991
230	0xbf0d4d59	-0.5519615
231	0xbf0b5817	-0.5443129
232	0xbbfe4a0a	-0.007760291
233	0x3c899711	0.016795667
234	0xbb872cdc	-0.0041252207
235	0xbba4dd18	-0.0050312392
236	0x3d84289b	0.064530574
237	0xbe175bd1	-0.14781119
238	0xbe0e9728	-0.13924849
239	0xbdbf6603	-0.09345629
240	0xbb688918	-0.0035482105
241	0x3981abb8	0.00024732738
242	0xbc692e49	-0.014232227
243	0x3d0d41e1	0.034486655
244	0xbac982f0	-0.0015374105
245	0xbf191725	-0.5980094
246	0xbf30c6f1	-0.6905356
247	0xbe982d21	-0.2972193
248	0xbde63cec	-0.11242089
249	0xbc13fc16	-0.00903227
250	0xba002ee5	-0.00048898003
251	0x39e278d8	0.00043196115
252	0x3eabc202	0.33546454
253	0xbe823c2f	-0.2543654
254	0xbcba0a64	-0.022710033
255	0xbf2130b8	-0.62964964

rgcn2.root f4 [16, 4]
0	0x3dd36d67	0.10323601
1	0xbe8e0878	-0.27740836
2	0xbeb5cd8b	-0.3550838
3	0xbef2d4e5	-0.4742805
4	0x3e738c7d	0.23784061
5	0xbd4ba90d	-0.049721766
6	0xbe9b3a4c	-0.30317914
7	0xbe35009c	-0.17676014
8	0x3e57a8c5	0.21060474
9	0xbf0ed034	-0.5578644
10	0xbf070286	-0.52738225
11	0x3d4be8db	0.049782615
12	0xbf46adcb	-0.7760894
13	0x3d9605db	0.073253356
14	0x3db8c28e	0.09021483
15	0xbee1f40a	-0.441315
16	0x3f077788	0.52916765
17	0xbf30e7e8	-0.6910386
18	0x3d074ed9	0.03303418
19	0x3d3dbb45	0.046321172
20	0x3f14a2a8	0.58060694
21	0xbeaf6049	-0.34253147
22	0xbc23e212	-0.01000263
23	0xbef274bc	-0.47354686
24	0x3f38e70f	0.7222757
25	0xbef392f6	-0.4757306
26	0xbe031f0c	-0.12804812
27	0xbf2d2dc4	-0.6764796
28	0x3f2deb5e	0.67937267
29	0xbf402abe	-0.7506522
30	0xbf351fe3	-0.7075178
31	0x3d9b2c4b	0.075768076
32	0x3f287084	0.65796685
33	0x3e3f86aa	0.18703714
34	0xbee1b5fa	-0.4408415
35	0xbd1f2303	-0.03885175
36	0xbc38bcf9	-0.011275523
37	0xbf0121c9	-0.5044218
38	0xbd802294	-0.06256595
39	0xbf25546f	-0.6458196
40	0xbda68f1e	-0.08132766
41	0xbdbb78cf	-0.09153902
42	0x3dc9c4ad	0.09851966
43	0x3dc1351d	0.09433959
44	0x3ecccfb0	0.40002203
45	0xbf3b0859	-0.7305961
46	0x3e1b33d5	0.15156491
47	0xbdc0c9ee	-0.09413515
48	0x3e763866	0.24044952
49	0xbec72339	-0.3889406
50	0x3da48029	0.08032257
51	0xbe81ce3d	-0.2535266
52	0xbe40189b	-0.18759386
53	0xbe285578	-0.16438854
54	0xbf34ff06	-0.70701635
55	0xbeeed2fd	-0.46645346
56	0x3eefb73b	0.4681948
57	0xbe8f18f3	-0.27948722
58	0xbf45f07c	-0.77320075
59	0xbf5fb26c	-0.87381625
60	0x3f2d0e2d	0.67599756
61	0xbf131d64	-0.5746672
62	0xbf35b24e	-0.70975196
63	0xbec96afc	-0.39339435

rgcn2.bias f4 [4]
0	0x3e5b97f7	0.21444689
1	0xbe771204	-0.24127966
2	0xbe7c985e	-0.24667498
3	0xbe86f14d	-0.26355973
