learned_weights.pth (torch, 17560 bytes, 6 tensors)

rgcn1.weight f4 [45, 1, 16]
00000000: 38c6 0f3f f427 0b3f 26b9 3bbd 4f88 b83d
00000010: 473b c3bd 8822 483e 6f6c 9fbc b6b8 233f
00000020: 0089 fdb9 2482 f8bd ec5f ea3e a118 1b3e
00000030: c00c a03c 23c9 55be c7ed 593f 5d77 8fbc
00000040: 52ca 7fbe 41f9 183e 3aeb c43e cee4 49bd
00000050: 6a69 853a 000b 463d aee8 873c d483 88bd
00000060: 0483 073f df52 16bd d642 3f3e c8d7 3a3e
00000070: 8888 713d 4bc2 163c 4937 1c3e f388 9bbc
00000080: 084c 453f 3f2f fd3e 6b1d f0bc f36d efbc
00000090: bb80 443e 046e 003e 9d91 7dbd d986 d0bd
000000a0: 9f73 b7bd 3157 293f 9d18 d33d a2bd b2be
000000b0: 18d4 2b3f 0a9e 08bd 1dd8 1d3f 48f6 41bb
000000c0: 559a 103f 69d2 a73d 0030 373f 16a5 14ba
000000d0: bb83 15be b2c2 3a3e 1649 e1bd 8172 ac3d
000000e0: 9b57 5d3e 9df0 5cbd b881 923d 8f91 a23e
000000f0: 7183 1dbd a340 3dbe e2d9 bcbe 2132 d6bc
00000100: f853 113f 4adb 853c 1b91 f7bc d68c acbb
00000110: 1672 9a3c 08ad 933e abf6 84bd 6d91 3b3d
00000120: 6093 673d 85dc dcbd 5370 bd3e ecc7 533e
00000130: f228 ed3b f820 08bc 5e30 973e e203 b9bb
00000140: 1005 303f 758f 0c3e 72fc 2dbe 85c3 1fbe
00000150: fd06 a63c a45e 53bd da45 d2bc 3534 0abd
00000160: 05be c7bd 2630 b83c 7bc7 fbbe 8633 02bd
00000170: 4372 8e3e 7513 1fbe c17f 863e d3bc 813b
00000180: 86f8 75bd 1cbb 013c 3b3a c93d f429 b8ba
00000190: 9efd b73d 6753 c83d 83a9 00bc c21f ae3d
000001a0: f294 ec3d 831e 613c 6e57 5c3d 6e94 473d
000001b0: 0038 983c 5523 17bd 6c82 5b3d 99ca 703d
000001c0: cc9d 513f 7306 153d bfc7 43be d715 cebb
000001d0: 7d5c 7f3e ccbe 8e3c 12e2 353c 6af1 8cbd
000001e0: c5f9 183e 45f4 803c 00ec 383f f04e 2a3f
000001f0: 79b9 673d 0fd4 a03e 0f48 d23d 1908 9abb
00000200: 7ce6 a93e 7931 203e 42bf df3e 9e21 f8bd
00000210: 6543 f6bc 3779 0a3f cac1 9abc a333 acbc
00000220: fde2 5abd f6fd c33e df19 5ebe 0276 21be
00000230: 334d a43d 3240 2e3d 8ec4 323f 9ecd d6bb
00000240: f040 003f 7177 123d 1d3d af3e 15c7 843c
00000250: 6e97 41be 913e 263e cbde 993c 509e c53e
00000260: 989d dcbd e7bc 87bc f8c6 a23e 5c64 ddbd
00000270: e19d c7bd d847 87be d0a6 b1bc 7410 b1b9
00000280: 711b dd3c 041e 603d b277 403f c75f 263e
00000290: 07e1 13bc cddd 1c3e 8adc dfbb d458 ac3d
000002a0: dcf8 0dbe 610d 933e 5cf0 103f bd43 163e
000002b0: ffb6 d43a 0bbb c03d a37b 5bbe f894 9dbc
000002c0: 1c95 903e 5b9b 2e3e 7ae5 e83c 005f 31bc
000002d0: 944b 363e 0d0b 443e a9e8 f93d 80cc 733c
000002e0: ec32 a63c 208f babd 1568 153e 4bad c43d
000002f0: 2f65 ca3b 387b 183e 69e4 f63c bdcd 8bbc
00000300: 3571 07be 89d6 3e3d 6936 6bbe e34d 853d
00000310: 3407 173e 8a01 06be 0adc f2ba 4170 80bd
00000320: 90e9 8bbd 8307 013f a5fb d6bd a407 2cbe
00000330: 1e15 bd3e e4c7 0dbc 320a 693e 90e9 efbb
00000340: c8bf 0a3f 66eb ee3d c44f 413f 6d8d 833c
00000350: 5a10 273f 236d 293f 342e 013e 0ca6 0f3c
00000360: e010 a6bd d2f4 043e a8fb f7be 1b4a e0bd
00000370: 5c33 383e 2010 b1bd 8492 043f b106 de3c
00000380: d0b1 503e 2755 9e3e 8ccb f1bd 9666 a23e
00000390: 3289 d3ba 1a81 293f afee c73e 819e 953d
000003a0: 49aa 1abe 8f39 dabd 99bb bc3c 1402 a33e
000003b0: 52f3 dd3e 787b 073e b51d ba3e d8c6 983c
000003c0: 8f56 103f fdf2 183e c7f0 b33e 33a3 a93c
000003d0: 53f0 55bd a41a e0bb 5c94 af3c b8d4 ee3c
000003e0: 7d9e 8e3e 7132 2b3e 21f6 123e ee8c cd3d
000003f0: 32aa b1bb c156 8cbe 6561 5bbd 30a9 67b9
0.5616183 0.5435784 -0.04583087 0.09010374 -0.09532791 0.19544423 -0.019460885 0.6395372
-0.00048357993 -0.12134197 0.45776308 0.15146114 0.01953733 -0.20877509 0.85128444 -0.017512972
-0.24979523 0.14938833 0.38460714 -0.04929047 0.001017851 0.048350334 0.016590443 -0.06665769
0.5293429 -0.036700126 0.1867784 0.18246377 0.058968097 0.0092015965 0.15255465 -0.0189862
0.7706914 0.49450108 -0.029310903 -0.029227233 0.19189732 0.12541968 -0.061906446 -0.1018197
-0.089576 0.6614867 0.10307429 -0.34910303 0.67120504 -0.033353843 0.6165789 -0.0029596258
0.5648549 0.081944294 0.7155762 -0.00056703517 -0.14601032 0.18238333 -0.11000268 0.084202774
0.2161545 -0.053940404 0.07153648 0.31751677 -0.03845543 -0.18481688 -0.3688498 -0.02614695
0.5676875 0.016339917 -0.030220559 -0.0052658124 0.018853229 0.2884295 -0.06492361 0.045792986
0.056537032 -0.10784248 0.3699976 0.20681733 0.007237547 -0.008308642 0.2952909 -0.005646215
0.68757725 0.137266 -0.16990831 -0.15601929 0.020267004 -0.05160393 -0.025668073 -0.033741195
-0.0975304 0.022483896 -0.4917563 -0.031787418 0.2782155 -0.15534766 0.26269343 0.003959277
-0.060051464 0.0079181455 0.0982556 -0.0014050589 0.089839205 0.09781533 -0.007852915 0.08502151
0.115518466 0.013740185 0.053794317 0.048725538 0.01858139 -0.03689893 0.053591177 0.058786962
0.81881404 0.036383104 -0.19119166 -0.0062892246 0.24937625 0.017424963 0.011101263 -0.068819836
0.1493903 0.015741477 0.7223511 0.665267 0.056573365 0.31411788 0.1026765 -0.0047006723
0.33183658 0.15643872 0.43700606 -0.12115787 -0.030061433 0.5409121 -0.018891234 -0.021020716
-0.05343913 0.38279694 -0.21689557 -0.15767673 0.08022537 0.04254169 0.6983117 -0.006555273
0.50099087 0.03575844 0.34226313 0.016208211 -0.18905422 0.16234805 0.018782994 0.38597345
-0.10772246 -0.016569568 0.31792426 -0.10810158 -0.0974691 -0.26422 -0.021685988 -0.0003377233
0.026990624 0.054716125 0.7518264 0.16247474 -0.009025819 0.15318985 -0.00683171 0.0841538
-0.13864464 0.28721145 0.5661676 0.14674278 0.0016228853 0.094106756 -0.21433882 -0.019236073
0.2823876 0.17051451 0.028429735 -0.010825872 0.17802268 0.1914484 0.122025795 0.0148803
0.020287953 -0.0910933 0.14590485 0.096033655 0.006176613 0.14890754 0.030138211 -0.017065877
-0.13226779 0.046591315 -0.22969975 0.06508996 0.14748842 -0.13086525 -0.0018528712 -0.06271411
-0.06831658 0.50402087 -0.10497216 -0.1679979 0.36930174 -0.008653615 0.22757795 -0.007321544
0.54198885 0.116659924 0.7551234 0.016058648 0.65259326 0.66182154 0.12615281 0.008767616
-0.081086874 0.12984017 -0.48434186 -0.109516345 0.17988342 -0.08645654 0.51786065 0.0271028
0.2038033 0.3092434 -0.118064016 0.31718892 -0.001613891 0.6621262 0.3904929 0.07305623
-0.15104021 -0.1065551 0.023038672 0.31837523 0.433497 0.13230693 0.3635079 0.018649504
0.5638208 0.14936443 0.35144636 0.020707702 -0.052231144 -0.0068391133 0.021433048 0.029154167
0.27855292 0.1671846 0.14351703 0.10036646 -0.0054219 -0.27409938 -0.05355968 -0.00022092904

rgcn1.root f4 [1, 16]
00000000: 9799 4f3f ce2b f43c e81b 6e3f 1281 b4be
00000010: a4d1 21be 9d03 21bd 46a9 f6be 4fd8 5c3c
00000020: 1ebd bd3e 9535 693d fa77 283f d41c 3b3f
00000030: 6e81 d7be b383 d43d 6581 c53e 2a02 b9be
0.81093735 0.029806044 0.9301133 -0.35254723 -0.15802628 -0.039310087 -0.4817602 0.013479306
0.37058347 0.056935865 0.6580807 0.73090863 -0.42090935 0.10376682 0.38575283 -0.36134464

rgcn1.bias f4 [16]
00000000: d90c c83e 2542 f83e 21b8 c03e cdae 1fbe
00000010: 0632 2bbe d011 093f 1ade e8bd df32 843e
00000020: e01e 233e b153 1fbe e106 603e 54a0 893e
00000030: 0310 c53d 3ec1 4fbe 5e50 013e 15c3 9cbd
0.39072302 0.48487964 0.3764048 -0.15594025 -0.16718301 0.53542805 -0.113704875 0.25820062
0.15929747 -0.1555927 0.21877624 0.26880133 0.096221946 -0.2028856 0.12628314 -0.076543964

rgcn2.weight f4 [45, 16, 4]
00000000: 883b 103f 33d6 8cbe 6ae7 a3be 7244 d8be
00000010: 4b70 363d fcc1 46bd 0fd5 34bc 0f21 87bb
00000020: 1e91 eabd f299 153e ae9d 91be a8f8 47be
00000030: af17 053c e53f 813c 2b1d 85bb 7339 84bb
00000040: 5b00 243d 00cb 47bc ba93 363d a00b f9ba
00000050: 8e06 a63e 8f70 9bbe 7dd8 7ebd 8d10 bbbd
00000060: 2a06 6a3c 126a 25bb 4d5c 89bb c9ef d33c
00000070: 8666 1d3c e88e e33d 22f5 7c3d 76d0 45bb
00000080: 5602 66bd 2165 8abe 678a 27bd 7a06 4ebc
00000090: fd5b 843e 834d 4bbe 5e4f 3fbe f697 7f3c
000000a0: c344 45bd 01c7 09bf 540d 80be 96b0 533c
000000b0: d880 053f cba7 c8bd 854c 32bd e791 d0bd
000000c0: a2e5 983c 715b 47be 6253 903c f843 c93b
000000d0: 772f 8f3e 3a6e 9ebe 8176 d4bd 243e 45bc
000000e0: 9d44 1cbe 4da4 d4be 1caf cfbe a31c 4cbd
000000f0: 1752 813c d5dc 983c 9fbf e03b 540f e0bc
00000100: ad99 773e bcc8 153e 4a4c d8be 69e2 fbbc
00000110: 1505 d83c 1f5d 12bd 6497 2fbd b7c5 bebd
00000120: 62a7 373e 988a 4cbe 6ff3 ce3d 50c8 bebd
00000130: 44ee 963b 4043 d338 f364 723d f564 a03c
00000140: d2c1 cf3b f350 373c 1224 983a 9777 5d3d
00000150: 537a 0c3c 008f c5bd de1b 71bd 335b e9bb
00000160: 96f3 563d 14eb 59ba 6fe6 423c c5cb fd3a
00000170: 29c6 5dbc 79a0 9fbd fe06 373a f573 6c3c
00000180: 2e13 843d 03ab 05bd 9b90 b9bd 4892 f7bc
00000190: 49a5 5f3d e01e 3fbd ed7c f1bc 1c16 7ebc
000001a0: 92ae 733d 837c 07bd 5fba c8bd 2a2e 153d
000001b0: 4be4 753d c080 c0bd 1975 b9bd c8ac b93c
000001c0: 0419 de3d 07f4 03bc b339 fcbb 3664 f6bc
000001d0: dc78 bcbc c0b0 74b8 1309 da3c c673 38bd
000001e0: d1ab e73c bae8 bc3d 46fa adbc cebe 57bc
000001f0: 6a90 053c ec9e c7bc 306b 6ab9 01f1 9ebc
00000200: 3db2 263f 9184 31bf 9ee8 973d 9d80 b93d
00000210: 3f88 19be 75b7 603c 635f bcbd bff5 0bbc
00000220: d42e 60bd ff17 3cbe 2170 bdbd 1d40 41bf
00000230: 2761 113c 0e94 59bb ba42 e63b 5210 7bba
00000240: ac49 14bc ddc9 a4bd 3836 fa39 a6cb a53c
00000250: 50b1 9d3d e401 fa3d ae2e a2be 4a27 cd3c
00000260: 89e3 04bc 647d b23b 325c b53c 9c40 0bbc
00000270: e266 dabd 403c ed3d 001b aabc 1d87 723c
00000280: f768 793e 4d96 22be 3722 59bf b7d5 0dbe
00000290: d6e3 03bc 8274 9a3c 4c13 8ebc cc0e fbbb
000002a0: ab6f d2bd 876a f4bd 9862 8fbd 7f01 f0be
000002b0: abb4 383e ec27 37bf a32a 28bf 5706 3cbf
000002c0: 0ada 573c fe60 f63b 3db1 1ebd 5a97 e03b
000002d0: 3d0e b1be d5e4 f9bd c143 b1bd 0f75 b6be
000002e0: 7511 923c 19f9 90bd a31e 61be ee12 0b3c
000002f0: 07c1 e8bb 2c75 273c b665 40bb cfd4 a13c
00000300: a2d6 123d 69bd 583b b231 46bd ad6a 36bf
00000310: f4f0 9b3e 0fb3 d5be e52d d0be 245c 8ebe
00000320: d483 d43e 0a68 1cbf b35b f8be c9ba 0bbf
00000330: 4603 da3c 6c86 493d 6cda a5bc a0af 42b9
00000340: 6a5a 20bc 51da 85be ad9b 8d3e aea2 eebe
00000350: 6c53 e93d 04b5 cc3b 8aa3 41bd 26ac 72bb
00000360: ce25 823b 7342 603c 0b7e 7dbc d49a 0abc
00000370: 1275 d83d 121c 81bd f1b4 943c a7aa 09bc
00000380: 2966 0f3f 0487 5dbd 2ec3 94be c8a0 e4bb
00000390: aad2 71be f004 b2be 2761 2dbf c32a 3fbf
000003a0: ab0f 53be cb61 bdbe 4fe0 46bf 4e8e 6a3e
000003b0: 3b0d 06be 4e69 f9be 030d a3be ee87 74bd
000003c0: d1a0 d53e 6bf0 debe 9e0b 90be 42ef f0bd
000003d0: 8f05 babc 7c48 d63c a683 1f3c 5067 7dbd
000003e0: 1d71 f8bc 374c 2fbf 3e8c 13bf 5c8b 69b9
000003f0: 041a 6ebc 978d 8b3b 60e3 67bd 5b88 b43a
0.5634084 -0.2750717 -0.32012492 -0.4223972 0.044540685 -0.04852484 -0.011037125 -0.004123814
-0.1145346 0.14609507 -0.28440613 -0.19528449 0.008123322 0.015777538 -0.004062315 -0.004035169
0.0400394 -0.012194395 0.044574477 -0.0019000657 0.32426876 -0.30359313 -0.062218178 -0.09134016
0.014283696 -0.0025240225 -0.0041919113 0.025871174 0.009606963 0.111112416 0.061757214 -0.0030184067
-0.05615457 -0.2703028 -0.040903475 -0.012574786 0.2585143 -0.19853787 -0.1868262 0.015600195
-0.04816128 -0.5381928 -0.2501017 0.012920519 0.52149725 -0.09797629 -0.043530006 -0.10184079
0.018664185 -0.19468476 0.017617885 0.0061421357 0.279659 -0.3094347 -0.10374165 -0.012038741
-0.15260549 -0.41531602 -0.40563285 -0.049831998 0.015786214 0.018659988 0.0068587805 -0.027351059
0.24179716 0.14627355 -0.42245704 -0.03074761 0.02636961 -0.03573334 -0.042868987 -0.09315055
0.17934945 -0.19974744 0.10105025 -0.0931555 0.00460604 0.0001007379 0.059178304 0.01957939
0.006340244 0.011188733 0.001160743 0.054069128 0.008574086 -0.09646416 -0.058864467 -0.0071214675
0.052478395 -0.00083129224 0.01189576 0.0019363096 -0.013536015 -0.077942796 0.0006981938 0.014431943
0.06448971 -0.032633793 -0.090607844 -0.03022112 0.054600988 -0.046660304 -0.029478515 -0.015508201
0.059492655 -0.033077728 -0.098011725 0.03642098 0.06003217 -0.09399557 -0.09055538 0.022665396
0.10844615 -0.008053786 -0.007697308 -0.030077081 -0.023006849 -5.8338745e-05 0.026615655 -0.045032285
0.02828017 0.092240766 -0.021237504 -0.01316805 0.008152107 -0.024367772 -0.0002235591 -0.019402029
0.6511572 -0.69342905 0.07417415 0.09057734 -0.1499338 0.013715615 -0.09197881 -0.008542477
-0.05473216 -0.18368529 -0.092499025 -0.75488454 0.008873261 -0.003319982 0.0070269974 -0.0009577322
-0.009050768 -0.08046315 0.00047724112 0.020238709 0.07699835 0.12207392 -0.3167624 0.025043149
-0.008110889 0.0054470766 0.022138689 -0.008499291 -0.106641546 0.115837574 -0.020764828 0.014802721
0.24356447 -0.15877648 -0.8481783 -0.13851057 -0.008049926 0.018854383 -0.017343186 -0.007661676
-0.10275205 -0.11934381 -0.07001227 -0.4687614 0.1803767 -0.7154529 -0.6569006 -0.73447174
0.013174543 0.0075188866 -0.038743246 0.00685398 -0.34581175 -0.12201849 -0.08655501 -0.35636184
0.01783059 -0.070787616 -0.21984343 0.0084884 -0.007103089 0.010220807 -0.00293575 0.019754795
0.03584922 0.0033071882 -0.048387237 -0.71256524 0.3045727 -0.41738173 -0.40660015 -0.27804673
0.41506827 -0.6109625 -0.4850746 -0.54581887 0.026612889 0.04920046 -0.020245753 -0.00018566707
-0.009787181 -0.26143125 0.27657834 -0.4660849 0.113928646 0.0062471647 -0.047275104 -0.0037028878
0.003971792 0.013687718 -0.0154719455 -0.008459765 0.105692044 -0.06304182 0.018152686 -0.008402503
0.5601526 -0.05408384 -0.2905516 -0.0069771744 -0.23615518 -0.34769392 -0.6772637 -0.74674624
-0.20611446 -0.36988673 -0.7768602 0.22905847 -0.13090985 -0.48713154 -0.31845865 -0.059699945
0.41724256 -0.435428 -0.28133863 -0.11764385 -0.022707729 0.02615761 0.009735977 -0.061866105
-0.030327374 -0.6847567 -0.5763587 -0.00022272527 -0.01453257 0.004258822 -0.056613326 0.0013773547

rgcn2.root f4 [16, 4]
00000000: 98ea 1d3f 023a 18be 33f2 8dbe d32c 39bf
00000010: d215 3d3f f51f 28be f06e 62bf 4700 fdbe
00000020: da11 4a3f 56b0 57bf 7885 41bc ab2c 29be
00000030: a1a1 b53e 6444 893e 34ed eb3c 718c 443e
00000040: 3160 4cbe 3d44 63be d53f 4c3e ed44 a7bd
00000050: 3c1b 843f 5b5d c9bd c3d2 b7be ccc7 77bd
00000060: a879 613d 069e 4eba de46 943d 423c 84be
00000070: 5d6f f63e 72fe 11be 3a22 3dbc 05c1 a8be
00000080: 524e 23be 80bd babe da83 06be 1fb0 4bbf
00000090: 716d 5ebc 1949 07be 5247 323e de04 abbe
000000a0: a106 05be 2955 13bf e520 05bf 85a6 51bf
000000b0: cfcc 31be 5e63 e6be 6731 c2be 36f3 50bf
000000c0: 2177 2ebe c7cc d43e 6915 abbe 78a6 c03d
000000d0: f6d6 b6bd 843f 8b3d 0d2b 843e 20a3 03bf
000000e0: b32a 1a3c 9d01 ed3d dafa cbbe 76db f0be
000000f0: 7a2c f9bb 9201 8ebd 0d36 2b3d 0e5c 153c
0.61686087 -0.14865878 -0.27723846 -0.7233402 0.7386142 -0.1641844 -0.8845053 -0.49414274
0.7893349 -0.8425344 -0.011811607 -0.16520946 0.35474876 0.2680999 0.02879963 0.19194199
-0.19958569 -0.22194 0.19946225 -0.081674434 1.0320811 -0.09832259 -0.35902986 -0.060493276
0.05504766 -0.00078818237 0.07240079 -0.25827223 0.48131838 -0.1425722 -0.011543805 -0.32959762
-0.15947846 -0.36472702 -0.13136235 -0.79565614 -0.013575898 -0.13211478 0.17410019 -0.3340215
-0.1299081 -0.5755182 -0.5200332 -0.81894714 -0.17363285 -0.44997686 -0.37928316 -0.8162111
-0.17037632 0.41562483 -0.33414772 0.094067514 -0.08927719 0.06799224 0.25814095 -0.51420784
0.009409594 0.11572573 -0.39839822 -0.47042435 -0.007604179 -0.06933893 0.041799594 0.009116186

rgcn2.bias f4 [4]
00000000: eb3b 983e 2249 8fbe 7d75 a3be 1c7c 90be
0.29733214 -0.27985483 -0.31925574 -0.28219688
