learned_weights.pth (torch, 17560 bytes, 6 tensors)

rgcn1.weight f4 [45, 1, 16]
00000000: 3df2 373f ed5c 0fbe b22e 1c3e 7c20 433e
00000010: dcaa 083f eca9 0c3f 1060 c53e f213 07be
00000020: 8e9e c3bd 6629 893d 1029 413f 9db6 863c
00000030: a8a2 913d 9699 433e ad7c 9a3d 7c3b 03be
00000040: 5592 773e 385e 8fbd 440d 4dbc 3658 f0bd
00000050: e07c 663e 07d2 70bc ec7a a33e 27c5 613c
00000060: 8b9f 07be 2257 9f3e 46e5 273e eb26 833e
00000070: ff90 20be eda5 f53d 7160 3a3f 20fb eabd
00000080: c11b 0f3f 3d4d 08bf b5d8 283f 46e3 413e
00000090: c782 8abd 0536 123d 94a9 b13c 4d71 f93d
000000a0: c1d1 8cbe 200a e93d fc2d b73e b471 cbbd
000000b0: 7dc3 893e 4169 10be 4404 713e 4b28 f73e
000000c0: da28 123f bb43 ecbd 6ea8 ce3e 2efe ec3e
000000d0: c0a2 15bb c731 1a3f 34a1 27bf b5fa 0ebe
000000e0: e210 d63c 718f 013e 89f0 233f 93fc 4f3e
000000f0: 691c c1be 1ec6 233d b812 b73e 50df 1abd
00000100: 2517 9a3c 2af7 f33d de32 773e a2e0 0f3f
00000110: 7e7f be3e 41d0 173e fd46 83bd a766 97bd
00000120: fa61 0a3e 08d4 31ba 8b1a 503e e401 1cbd
00000130: 5111 9cbd 1104 2bbd a9c6 0a3e 486d 803d
00000140: 107c 843d 961d 5e3e 1ca6 f13d befd 793e
00000150: be2a 263f 2d78 e5be ba4c 903e b69f c73e
00000160: 6a53 8cbb d586 e23e 7d6f b93e adb9 0a3e
00000170: 6786 fa3e 6034 3abb 362c 663e 99f3 d13d
00000180: f545 123d fc12 bd3b 075f fe3d fb7e a43d
00000190: da48 a33d a496 16be 83e3 94bb b24a bf3c
000001a0: a046 1b3c be23 273d fa57 ec3c 6631 213d
000001b0: fe32 b43c a29f 883d 0c47 643d 019c 293e
000001c0: 3985 43bd 38bd ed3d ed22 b73e 072e 4fbe
000001d0: 3151 09be 7c82 30bc 740c b23e 333d 06bc
000001e0: 8e41 843d ad2e 2d3f a73f 0c3f e609 c33e
000001f0: d37d b7be d3b3 683c eeba 8abe 4426 cabd
00000200: cde0 893e a698 23bf 3807 3b3e 1c55 333e
00000210: 720d bf3c bdd1 d83e b310 99be 70bd ec3e
00000220: 5031 0bbe 7c32 713e 42a2 003f 055d 8d3e
00000230: 8b61 91bd 28bf 20be ed13 ab3d ed50 c4bc
00000240: ee6e e13e e728 d03e 3f29 653e 3595 07be
00000250: 51ff ac3e b74e 3c3e e976 853e 6d62 22bd
00000260: 4f09 633e 1607 4e3f 1912 ac3e 2114 503c
00000270: 08e4 be3d 03da 883d 53cd 43bd cbbd 813d
00000280: f209 cd3d ef28 5e3d 0c5f 823e 171c d9bd
00000290: 51c9 cd3c bfc7 ba3e d8c1 243e 8f23 243c
000002a0: af68 a73d da38 1bbd ec89 1a3d 4cb9 7a3e
000002b0: 60ba 083f ecd9 523f d85a be3d 8ec8 8c3c
000002c0: c02e 633e 09fc b13d 9424 133e 6f5b 30bd
000002d0: ca65 323e 01c1 893d a10f e13d 53ff 8b3d
000002e0: ddba b23d 7e55 19be 2978 883c 8c20 1d3d
000002f0: 17a0 073e 74f0 973d 5b42 133e 67b8 02be
00000300: b144 cabd ca73 2ebe da56 2ebd a057 52be
00000310: 9cf7 47be bc03 1bbe a2c9 12be 7b32 fbbd
00000320: 1a1e 6ebe 9712 0abe 2904 d8be da4b 6f3e
00000330: 6710 243f b715 b6bc f3f9 733e 4c9e 083f
00000340: 09a9 a63e 6ff0 bfbe 4d12 8f3e 5ad5 803d
00000350: 91a3 613e ebd0 8f3d 40bb 4a3e b48b 1a3f
00000360: a967 623c 9932 193e 9d60 6d3e 5988 333e
00000370: fd9f 92bd 2316 e0bb c72d 9dbc c496 19be
00000380: ae16 3f3f 89cc fc3c c068 463e 30b5 3e3f
00000390: 199a e7bd b141 353e 2fe3 703e b534 eabd
000003a0: bb1d e43b 6fb3 2a3f e5c4 363f 1dde d9bd
000003b0: 6526 df3d 9a2a fc3d fc31 033f 2137 e43d
000003c0: c538 8abd 045d 633e b4b4 38bd fbf0 343e
000003d0: 81b5 983d 6ab7 693e 8d1b 81be e2f5 9f3c
000003e0: 4a30 713d a886 b93e d6b1 1fbc 9aa2 c4bc
000003f0: 2e46 963e 3558 b93d 27fc 0cbe dd1c f73d
0.71854 -0.14000292 0.15252188 0.1905536 0.5338571 0.5494678 0.38549852 -0.13191202
-0.09551726 0.06697349 0.7545328 0.016444499 0.07111102 0.19101557 0.07543311 -0.1281566
0.24176915 -0.07000393 -0.01251537 -0.11735575 0.22508574 -0.014698512 0.3192972 0.013779915
-0.13244455 0.31121165 0.16396055 0.2561563 -0.15680312 0.119945385 0.7280341 -0.114736795
0.55901724 -0.53242856 0.6595567 0.18934354 -0.06763225 0.03569605 0.021687306 0.121798135
-0.2750378 0.11378884 0.3577727 -0.099337965 0.26906958 -0.14102651 0.23536783 0.4827293
0.57093585 -0.11536356 0.40362877 0.46287674 -0.0022832602 0.60232204 -0.6548035 -0.13962825
0.026131097 0.12652375 0.640389 0.20311193 -0.37716988 0.03998386 0.3575647 -0.037810624
0.018809864 0.11912377 0.24140498 0.5620214 0.37206644 0.14825536 -0.06410024 -0.07392626
0.13513938 -0.0006783609 0.20322625 -0.03808774 -0.0762049 -0.041751925 0.13552345 0.06270844
0.064689755 0.21690974 0.11799261 0.24413201 0.6490897 -0.4481825 0.28183538 0.38989037
-0.0042824047 0.44243494 0.3621787 0.13547392 0.48930666 -0.0028412566 0.22477803 0.10251541
0.035711247 0.0057700854 0.12420469 0.08032032 0.0797288 -0.14705902 -0.004543723 0.023351047
0.0094772875 0.04080557 0.028850544 0.03935375 0.021996971 0.066710725 0.055731818 0.16563417
-0.047734473 0.11608356 0.35768834 -0.20232402 -0.13409878 -0.010773297 0.34775126 -0.008193302
0.06457816 0.67649347 0.54784626 0.3809349 -0.35838184 0.01420303 -0.2709574 -0.0987058
0.26929322 -0.639048 0.18264472 0.17512935 0.02332184 0.42347518 -0.29895553 0.4623828
-0.1359303 0.23554415 0.50247586 0.2761003 -0.07098683 -0.1569792 0.0835341 -0.02396437
0.44029945 0.40656206 0.22379015 -0.13240512 0.3378854 0.18389402 0.26067284 -0.039644647
0.2217152 0.8047956 0.33607557 0.012700112 0.09320837 0.066822074 -0.047803234 0.06335028
0.100116625 0.054238256 0.2546314 -0.10601061 0.02512041 0.3648052 0.1608957 0.010018243
0.08174264 -0.037896015 0.03772919 0.24484748 0.53409386 0.8236377 0.09294671 0.017185476
0.22185802 0.0869065 0.14369422 -0.043055948 0.17421642 0.06726266 0.10989309 0.068358086
0.087270476 -0.14974019 0.01665886 0.038361117 0.13244663 0.0741891 0.14380781 -0.12765656
-0.09876383 -0.17036358 -0.042563297 -0.20541239 -0.19528049 -0.15138143 -0.1433473 -0.12265488
-0.2325367 -0.13483654 -0.42190674 0.23368779 0.6408753 -0.022227151 0.23825817 0.5336654
0.3255084 -0.37488124 0.2794365 0.062906936 0.22035052 0.0702227 0.19797993 0.6036942
0.01381866 0.14960708 0.23181386 0.17532481 -0.071594216 -0.0068385764 -0.019186867 -0.14998919
0.7464398 0.030859249 0.19375896 0.7449522 -0.11308689 0.1770084 0.23524164 -0.11435834
0.006961552 0.66680044 0.7139419 -0.10638068 0.10895995 0.12312813 0.51248145 0.111433275
-0.06749109 0.22203451 -0.045094207 0.17670052 0.07456494 0.22823873 -0.25216332 0.019526426
0.058883943 0.36235547 -0.009746989 -0.024003316 0.29350418 0.09050027 -0.13768063 0.12066052

rgcn1.root f4 [1, 16]
00000000: fa62 1b3f 51f9 2f3f 17bb 2e3e 8d0f 483f
00000010: c920 a23e 952a 853e 3e26 803e 5321 b23b
00000020: d9b9 b13e d2c4 ecbd 81ed a83e 020c 743e
00000030: ab0b 063f c07e 30be 3672 133d 6c60 ce3d
0.606979 0.687398 0.17063557 0.7814873 0.31665638 0.2600905 0.25029176 0.0054361015
0.34712103 -0.11560978 0.329937 0.23832706 0.52361554 -0.17235851 0.035997592 0.10076985

rgcn1.bias f4 [16]
00000000: b4d0 b43e f63d e53d fecd c13e e3de 993e
00000010: e07c dd3e ba18 9c3e 7631 f3bd 5761 0fbe
00000020: 59c1 d63d 9a5c bf3e 2178 a23e 7425 963b
00000030: b21e 813e 013f bc3e 7f1d c83e 0ac3 8d3e
0.35315478 0.11193459 0.37852472 0.30052862 0.43259335 0.30487615 -0.11874668 -0.14001976
0.10486097 0.37375337 0.31732276 0.0045821015 0.2521873 0.36766818 0.39085004 0.27687865

rgcn2.weight f4 [45, 16, 4]
00000000: 8408 a53e 1e9d 8bbd 8729 083e 4da8 0abf
00000010: 9964 ff3c 2bce b2bd 46cb ccbe ae98 d7bd
00000020: e6f7 683d 993f e63d b998 b6be faab 12be
00000030: 1c61 873d 4b13 c5be b113 28be 8d43 883d
00000040: 48a3 d03c 4ab0 27be 711c bbbe 1cef 8bbd
00000050: be15 5a3d e469 34be fa35 ac3d bf85 3c3d
00000060: d296 c9bc 4a4c 37bc 452f 83be 2654 b33d
00000070: 7886 f53b 401b 80bd d2b8 7b3c 300a ddbe
00000080: eff7 b3bd 3141 03bd 4291 65bd bf5c fc3b
00000090: c444 b33b 0d87 2cbe 7c8b ebbe 669c 20be
000000a0: c3e1 913e 9138 5c3e 2e6d d33d 5860 2bbf
000000b0: d7c8 0a3e 93a6 03bf da32 92bd 1afc 7c3c
000000c0: 5127 563c 3e54 43bd 26b5 36be 5693 7ebd
000000d0: 1b3b 9d3d 28ef 5cbc 1c30 b23d 9668 683c
000000e0: 1abb d8bd abaf 08be 974a 85be 08c7 a6bd
000000f0: 507a 4cbd 4212 c03b 026e cebd 7ead 5f3d
00000100: d6c0 0b3e 607f e2ba 6da0 14be ca51 13be
00000110: 23f4 f63c d011 20bd 79eb bcbd 9064 b93c
00000120: 2c5e 9f3d 3502 94bc 1752 babd 35a1 d3bc
00000130: 6e6f 5fbd f5a5 fcbd 5556 233e 3dba 5cbe
00000140: 0d9d 9e3c 378b 9ebc c433 e83d 1bcd a03d
00000150: f327 423d 3379 83bc af75 0b3e 2212 24bd
00000160: 7c28 ad3c 4fca 8fbc a6a7 723c f2e0 2f3b
00000170: 9bd5 98bc 4d80 ad3d 2746 1f3c 3081 50b9
00000180: be56 913c 222d 2dbb 9b72 88bd f048 b3bc
00000190: 0f37 463c 2dea 343b e1e2 35bc 4142 813d
000001a0: e4db dc3d 6b3c f7bc 32c0 89be 8e05 21be
000001b0: 4646 2a3d 622b 54bc fd57 b7bd 40ab 493d
000001c0: f241 aa3c 7d89 a4bc 5cd0 b3bd f65e c9bb
000001d0: 0ace 8a3b d111 9abb fbd6 e5bb 5f3d c23d
000001e0: b9ca 6f3c fe6d 8ebc 52ee 9ebc eb2c 0ebc
000001f0: 92be c53d 64b1 8b3d b238 ac3a dfdd 1fbd
00000200: 45bd b9be d402 c1be 0ade c2be c778 6f3e
00000210: b664 cb3e 95b4 1abe 669e 2abf 01b7 acbe
00000220: 8072 5c3e a992 553e e17c 43bf 6613 1abf
00000230: d5e0 59bd 8592 06bf 3b25 92bb 7984 5abe
00000240: 4509 4ebe bc97 f83d 42cc 4bbd 382f 05bd
00000250: a8bc a63e ffed 1e3e 10a7 2cbf 6dbd 113e
00000260: 1191 aa3e de03 c23d 7436 ec3d cba6 113e
00000270: 3c51 c03d 00c7 92bc ae0f 483a dc40 3cbb
00000280: 8b32 6bbe 90f9 173d bcec bb3d d0ca 07bd
00000290: f3dd b93e a9eb 01bf a4c6 1e3e e355 21bf
000002a0: ffe7 f63d 6b55 8cbd bbaf 4ebe 2693 d4be
000002b0: 2504 69be cc9a 14bf 83e8 9b3e 3df3 9f3c
000002c0: e968 9bbe ed7b d33d e363 02bf 1cb5 1ebc
000002d0: c73b 693d a4ab e13c 0e8f 53bc 94ca bb3b
000002e0: 9840 083f 355a b9be 0e9d fcbd 0a2e 15bf
000002f0: 2efd 0bbd fe9b ac3c d7fb 843d b00b ee3d
00000300: 2fae 8ebe 0849 403e 7f31 a0be 085d d6be
00000310: 454f 0b3e 3ec2 673e ee8e b43e c3f0 2c3e
00000320: d8bb fd3e 6239 293e 5eba 58be f4a0 5d3e
00000330: f806 a73d ca1a 6b3b 248a bdbc 7546 98be
00000340: 62ce e6bb 71b2 bdbc 1644 23be d6f0 163c
00000350: 0d7f 083e 31c1 45be fa16 00bf 49fb 00bd
00000360: ae66 96be fb3b 393e 91d7 7f3e 2a43 ffbe
00000370: c41c 5cbd 7f2f e5bd 2632 babe 9a40 9f3d
00000380: 94b6 263e 0cd7 b5bd 046c b63e 6f83 943e
00000390: e22b 8b3d 3435 bfbb 6a3f 3dbd 8b5a 3fbc
000003a0: 7a20 973e 7abd 0bbd 4bd6 acbe 2a93 e2be
000003b0: 0a70 1f3f bb24 0fbe 687d 3ebd ef45 80bd
000003c0: 60f2 963e 515e 17bf 2f51 2b3d cd24 d1be
000003d0: 5fc8 e8bd 3a6f 99bb f696 92bb 4fa7 f23d
000003e0: 4e3e b43c 68da dcbd 0797 84be 55ee e4bc
000003f0: 5a37 fd3e 8026 28bf bf7b 93be cccc 15bf
0.3223306 -0.06817077 0.13297091 -0.54163057 0.031175898 -0.0873073 -0.39998835 -0.10527168
0.05687704 0.11242599 -0.35663393 -0.14323416 0.06610319 -0.38491282 -0.16413762 0.06653509
0.025468484 -0.16375843 -0.36545137 -0.06832716 0.05324339 -0.17618519 0.08408733 0.046025988
-0.02460805 -0.011187622 -0.25622 0.087562844 0.0074928366 -0.062551975 0.015363889 -0.43171835
-0.08787524 -0.032044593 -0.05604673 0.007701486 0.005470844 -0.16848393 -0.46004856 -0.15684661
0.28492555 0.21505953 0.10323559 -0.66943884 0.13553177 -0.5142605 -0.071386054 0.015440965
0.013070897 -0.04768776 -0.1784254 -0.06215223 0.07677289 -0.013484754 0.087005824 0.0141850915
-0.10582562 -0.13348262 -0.2603347 -0.08143431 -0.049921334 0.0058615515 -0.10079576 0.054608814
0.1364778 -0.0017280392 -0.14514323 -0.14386669 0.03014571 -0.039079487 -0.092246 0.02263096
0.07781634 -0.018067459 -0.09097689 -0.025833705 -0.054549627 -0.12336341 0.15950902 -0.2155542
0.019361997 -0.019353492 0.113379985 0.07851621 0.04740138 -0.016049003 0.13619111 -0.040056355
0.021137469 -0.017552523 0.014810478 0.0026836959 -0.018656543 0.08471737 0.0097213155 -0.00019884552
0.017741557 -0.0026424606 -0.06662484 -0.021885365 0.012098088 0.00276054 -0.011101455 0.06311465
0.10784128 -0.030180177 -0.26904446 -0.15724775 0.041570924 -0.012949796 -0.08952329 0.049235582
0.020783398 -0.02008509 -0.08779976 -0.0061453534 0.0042359876 -0.004701831 -0.007014153 0.09484362
0.014635735 -0.017386433 -0.01940075 -0.0086777015 0.09655489 0.06820944 0.0013139455 -0.039029952
-0.36277214 -0.3769747 -0.38060027 0.23385917 0.39725274 -0.15107949 -0.66647947 -0.3373337
0.21528053 0.20856728 -0.76362425 -0.6018585 -0.053192932 -0.5256732 -0.0044600046 -0.21339597
-0.20120724 0.12138316 -0.049755342 -0.032515734 0.32565808 0.15520476 -0.6744242 0.14232416
0.33313802 0.09473394 0.115338236 0.14223783 0.09390494 -0.017917156 0.0007631731 -0.0028725183
-0.229685 0.037103236 0.09176013 -0.0331524 0.36302146 -0.50750214 0.15505463 -0.6302168
0.120559685 -0.0685223 -0.20184223 -0.41518515 -0.22755487 -0.580487 0.3045083 0.019525165
-0.30353478 0.10326371 -0.50933665 -0.0096867345 0.056941774 0.027547665 -0.012912525 0.0057309363
0.5322356 -0.36201635 -0.12334643 -0.58273375 -0.034176998 0.021070477 0.06493347 0.11623323
-0.27867267 0.18777859 -0.31287763 -0.41867852 0.13604458 0.22632691 0.35265297 0.16888718
0.49557376 0.16525796 -0.21164843 0.2164343 0.08155626 0.0035874122 -0.02313716 -0.29741254
-0.0070436457 -0.023156377 -0.15943941 0.009212693 0.13329716 -0.19311978 -0.5003506 -0.031489644
-0.29375213 0.18089287 0.24984576 -0.4985593 -0.05373837 -0.111907 -0.36366385 0.07775994
0.16280586 -0.088789076 0.35629284 0.29006526 0.06795479 -0.0058351997 -0.046203054 -0.011679302
0.29516965 -0.034116246 -0.33757243 -0.44252902 0.62280333 -0.13978855 -0.046506315 -0.06263339
0.29481792 -0.5912829 0.04182547 -0.4084839 -0.11366343 -0.0046824487 -0.0044735624 0.11848318
0.022002365 -0.10783845 -0.25896475 -0.027945677 0.49456292 -0.65683746 -0.28805348 -0.5851562

rgcn2.root f4 [16, 4]
00000000: 354a 303f 3e04 fabe 7633 57bf e49c 373e
00000010: 20c8 f63e c902 53be 28eb 34be 363e 35be
00000020: 5dc5 173f 46ba 243e 16af c4be d7f3 5abf
00000030: 13fe 943e 5423 8dbe ef73 8fbd 305f 57bf
00000040: 8e4d 013f fd67 fabe c1fc 2abf 7c77 96be
00000050: 2ec0 90bd 2c44 1cbf 1d8a 643e c5f2 19bf
00000060: 913c c33e f29a c83d b201 63be 833c 673d
00000070: 87be 8cbe 7841 b93d b462 5f3e 3ce2 42bc
00000080: 640c 083f 63f0 42bf 0e31 c8be d6c0 7a3e
00000090: 2a53 ae3e e5fd 12bf 32cc 11bf 49dd eebe
000000a0: 9245 2f3f a997 4ebf 58d4 babe aa74 ed3d
000000b0: c209 76bd 1998 73be 4fbc 8fbe 1793 00be
000000c0: efda 1a3f 3a73 8fbe 191c a03d 4eff 06bf
000000d0: e4a9 efbd 2056 26bf 69be 48be aa86 1bbf
000000e0: 358f 19be c1d5 fabe 915c 65be f44a 68bf
000000f0: 42c7 e03e 2694 ac3b 7028 ad3d b4ea aabe
0.6886323 -0.48831362 -0.840629 0.17930943 0.48199558 -0.20606531 -0.1766783 -0.17699513
0.5928553 0.16086683 -0.3841483 -0.8552832 0.29100093 -0.27566016 -0.070045345 -0.8412962
0.50508964 -0.48907462 -0.6679192 -0.29388034 -0.07067905 -0.6104152 0.22318311 -0.6013606
0.38132146 0.097951785 -0.22168615 0.056454193 -0.2748911 0.0904569 0.21814996 -0.011894759
0.53143907 -0.7614805 -0.39099926 0.24487624 0.34047824 -0.5741866 -0.569522 -0.46653202
0.6846553 -0.80700165 -0.3649013 0.115945175 -0.0600679 -0.2378849 -0.28073356 -0.1255611
0.60490316 -0.28017598 0.07817859 -0.52733314 -0.11702326 -0.64975166 -0.19603886 -0.60752356
-0.14996035 -0.48991206 -0.22398593 -0.9073937 0.43902022 0.005266684 0.084549785 -0.3338219

rgcn2.bias f4 [4]
00000000: 7fe7 733e fa1f 80be f22b 8cbe a41c 87be
0.23818778 -0.25024396 -0.27377278 -0.2638904
